back/model1.pt (torch, 71346 bytes, 96 tensors)

weight f4 [15, 3, 1, 1]
-0.16299559 0.17198467 1.1019962 0.4265036 0.16377148 0.16304079 0.037297335 -0.25808537
0.8315546 0.03658974 -0.29041672 0.75636774 0.34361312 -0.30381668 0.38737756 -0.38563576
0.3861598 0.8526135 0.14349402 0.4074578 -0.004135873 0.089941345 -0.3615615 0.5363
-0.5577672 -0.1790002 0.90372443 -0.22003376 0.5087463 -0.41715783 0.5111087 -0.27432385
-0.054911852 0.04854076 0.54716754 -0.27167165 -0.0040911487 0.007968945 2.0050936 -0.48181513
0.2849836 0.07531866 0.3964321 0.09514696 -0.25088713
00000000: 51e8 26be c01c 303e 360e 8d3f ae5e da3e
00000010: b6b3 273e 2af4 263e 17c5 183d c423 84be
00000020: c3e0 543f 20df 153d 80b1 94be 51a1 413f
00000030: 0fee af3e dc8d 9bbe 5a56 c63e 0d72 c5be
00000040: bdb6 c53e e144 5a3f 19f0 123e 4f9e d03e
00000050: 3886 87bb 2b33 b83d 971e b9be f54a 093f
00000060: d5c9 0ebf d44b 37be 7c5a 673f 8850 61be
00000070: 333d 023f b695 d5be 05d8 023f 2d74 8cbe
00000080: 40eb 60bd add2 463d 2c13 0c3f 8c18 8bbe
00000090: 0b0f 86bb 2e90 023c 7453 0040 79b0 f6be
000000a0: 5fe9 913e ab40 9a3d 26f9 ca3e 69dc c23d
000000b0: 4774 80be

weight f4 [15]
0.9791255 0.9041408 1.1162698 1.1327343 0.8907238 0.94136643 0.65157723 1.5131347
0.96731067 0.80482554 0.68815386 0.5446986 1.6227583 0.9315463 0.54813594
00000000: f8a7 7a3f c575 673f eee1 8e3f 70fd 903f
00000010: 7a06 643f 64fd 703f c4cd 263f 66ae c13f
00000020: aca1 773f 0c09 4e3f da2a 303f 5e71 0b3f
00000030: 8bb6 cf3f d179 6e3f a352 0c3f

bias f4 [15]
-0.14199354 0.18302904 -0.08625885 -0.012350259 -0.0020796882 0.013615659 -0.021227427 -0.046313997
0.18640831 0.01795308 -0.08418875 -0.058395762 -0.075690925 -0.110782675 -0.14568117
00000000: c166 11be f76b 3b3e 7ba8 b0bd be58 4abc
00000010: 614b 08bb 3714 5f3c 24e5 adbc bfb3 3dbd
00000020: d2e1 3e3e 5612 933c 276b acbd 6530 6fbd
00000030: d803 9bbd 07e2 e2bd 722d 15be

running_mean f4 [15]
-5.902158 70.81252 -16.87794 -19.831509 19.47778 -16.983515 54.35644 -19.082367
-88.80577 14.685334 43.88382 53.714382 1.5324469 -39.038143 60.604633
00000000: 7ade bcc0 03a0 8d42 0506 87c1 eea6 9ec1
00000010: 7ed2 9b41 3dde 87c1 ff6c 5942 b0a8 98c1
00000020: 8e9c b1c2 21f7 6a41 0889 2f42 87db 5642
00000030: 3827 c43f 0f27 1cc2 256b 7242

running_var f4 [15]
72.37201 1060.8572 267.05994 340.66782 302.6887 413.33978 1084.3617 459.6812
1677.9784 775.4868 523.6263 1467.9103 1.1767224 466.40613 748.6121
00000000: 78be 9042 6e9b 8444 ac87 8543 7b55 aa43
00000010: 2758 9743 7eab ce43 938b 8744 32d7 e543
00000020: 4fbf d144 28df 4144 15e8 0244 217d b744
00000030: d79e 963f fc33 e943 2d27 3b44

weight f4 [5, 5, 3, 3]
-0.0004113927 -0.19603562 0.020273374 -0.18349238 -0.15734717 -0.27665997 -0.17394969 -0.20333828
-0.30405232 -0.09614255 -0.05184447 -0.025573276 -0.21215303 0.001559276 0.20533395 0.11861751
-0.056046467 -0.073375076 0.20831859 0.17357166 0.17159024 0.24303511 -0.18520106 0.013413682
0.21180211 0.061648976 0.17782936 0.21431266 0.12834948 0.07283702 0.005007545 -0.01426701
-0.20352088 0.22245397 -0.06929899 0.18376173 0.17898317 0.085791945 0.0946792 -0.109865196
-0.1401728 -0.115085535 0.04820962 0.07608143 -0.035194226 -0.00164867 0.14333783 0.109154925
-0.021197379 0.016241057 0.21635287 -0.033765834 0.05737392 0.07114311 -0.099755205 -0.11559043
-0.15627809 0.047253095 0.13038644 -0.28212702 -0.081782185 -0.13774279 -0.4050106 0.19314548
0.19769616 0.2423804 0.04970301 0.27679074 0.10962195 0.052068397 0.13003364 -0.20842344
0.11299926 0.13181295 0.29682782 0.23466665 0.24074054 0.117151655 -0.02761799 0.078255534
-0.1282733 0.026174234 0.07191684 -0.023637727 -0.080403626 0.0014654301 0.02008299 0.089842245
0.14625254 -0.30802596 0.18316463 -0.03795293 -0.15292059 0.058688574 -0.032696757 -0.20583431
-0.13415986 -0.072782144 -0.2729644 0.019720659 -0.08123973 -0.09553301 -0.045554332 -0.10646124
-0.0150825195 -0.046027746 -0.030852139 0.0049858987 0.12286689 0.07578958 -0.042006105 0.21857387
0.16171625 0.31051144 0.20030473 0.08073619 0.0340704 0.013851636 0.083912484 0.08179081
0.37673777 0.26605606 0.18510865 0.16589774 0.07253468 0.19735429 0.17555211 0.07071457
-0.027933478 0.23814291 -0.13388057 0.18221593 0.0753479 0.04613743 0.118391424 0.15367252
-0.31957403 -0.14825402 0.12960713 -0.23511437 -0.18089512 -0.16400066 -0.29807174 0.03206056
0.14425169 0.11924756 0.11337859 -0.09104769 0.06093386 0.011840514 -0.09518635 0.12534408
-0.059410587 -0.14006096 0.11932638 0.07561755 -0.012287043 0.18332155 0.1809279 0.0037120876
0.13943392 0.0958591 0.1293326 0.10895392 0.028305063 -0.069252536 -0.028225124 0.0490116
0.09850768 0.2428409 0.1347342 -0.081270754 0.21125007 0.1268935 -0.14188206 0.0729015
0.08178261 0.031205067 0.38936362 0.11805984 -0.061431993 0.042227797 0.10233455 -0.08814423
-0.046835158 0.095941536 -0.22204739 -0.030625286 0.06322406 -0.15552197 0.031865936 -0.13189296
-0.031080084 -0.13454095 -0.08687115 -0.12662484 -0.214364 -0.08066721 0.046773646 -0.022057103
-0.13518752 -0.11114368 -0.1509497 -0.27080122 -0.008774805 -0.30507335 0.09348651 -0.0031813718
-0.25276572 -0.31610864 0.034102652 0.07115222 2.8950279e-05 0.026590807 -0.17321299 -0.100192584
0.16205561 -0.17779195 -0.167325 0.18338223 0.07151081 -0.0352032 0.24760975 -0.28193238
-0.013916686
00000000: 32b0 d7b9 90bd 48be 5914 a63c 6de5 3bbe
00000010: 9e1f 21be 60a6 8dbe de1f 32be e937 50be
00000020: bfac 9bbe 63e6 c4bd de5a 54bd 0c7f d1bc
00000030: a53e 59be 9f60 cc3a 1043 523e bded f23d
00000040: fb90 65bd ac45 96bd 7851 553e c5bc 313e
00000050: 5ab5 2f3e 32de 783e 59a5 3dbe 0fc5 5b3c
00000060: a7e2 583e a383 7c3d e618 363e c774 5b3e
00000070: 0c6e 033e 932b 953d 5516 a43b 2dc0 69bc
00000080: c767 50be f9ca 633e a1ec 8dbd 092c 3c3e
00000090: 5d47 373e b0b3 af3d 2be7 c13d 0101 e1bd
000000a0: 7589 0fbe f7b1 ebbd 7377 453d 95d0 9b3d
000000b0: d227 10bd 2f18 d8ba 27c7 123e 9e8c df3d
000000c0: 20a6 adbc f70b 853c 9b8b 5d3e 0b4e 0abd
000000d0: ea00 6b3d 7bb3 913d 754c ccbd adba ecbd
000000e0: 5d07 20be 768c 413d 0684 053e f472 90be
000000f0: 6b7d a7bd 720c 0dbe 8d5d cfbe eec7 453e
00000100: dd70 4a3e 9132 783e 6295 4b3d 84b7 8d3e
00000110: 7981 e03d ac45 553d 8a27 053e f46c 55be
00000120: 286c e73d f9f9 063e d1f9 973e 744c 703e
00000130: b084 763e 35ed ef3d 1f3f e2bc 7044 a03d
00000140: 135a 03be 596b d63c 2349 933d e8a3 c1bc
00000150: a8aa a4bd ad13 c03a 1585 a43c 36ff b73d
00000160: 3ac3 153e 94b5 9dbe 828f 3b3e 8874 1bbd
00000170: 3797 1cbe 6e63 703d 09ed 05bd 3bc6 52be
00000180: 3461 09be ce0e 95bd fdc1 8bbe 388d a13c
00000190: 0461 a6bd d0a6 c3bd 2e97 3abd 5a08 dabd
000001a0: ac1c 77bc 9787 3cbd a0bd fcbc c060 a33b
000001b0: a3a1 fb3d 9137 9b3d 980e 2cbd d4d1 5f3e
000001c0: f298 253e 5bfb 9e3e af1c 4d3e 0459 a53d
000001d0: 678d 0b3d f9f1 623c 4fda ab3d f181 a73d
000001e0: c6e3 c03e 8038 883e 1f8d 3d3e 19e1 293e
000001f0: 108d 943d 3e17 4a3e efc3 333e cdd2 903d
00000200: c0d4 e4bc bcdb 733e fd17 09be d096 3a3e
00000210: 0050 9a3d 9afa 3c3d 3477 f23d 545c 1d3e
00000220: 359f a3be e7cf 17be bbb7 043e d2c1 70be
00000230: 923c 39be caef 27be dc9c 98be ef51 033d
00000240: b7b6 133e 1138 f43d 0933 e83d 3677 babd
00000250: c895 793d b7fe 413c 10f1 c2bd 335a 003e
00000260: 8458 73bd 246c 0fbe 6461 f43d 60dd 9a3d
00000270: 984f 49bc a5b8 3b3e 2a45 393e 7f46 733b
00000280: c4c7 0e3e c751 c43d c46f 043e 3c23 df3d
00000290: 05e0 e73c 46d4 8dbd 6038 e7bc 63c0 483d
000002a0: 65be c93d 49ab 783e c3f7 093e 4871 a6bd
000002b0: f051 583e 5ff0 013e 8849 11be 624d 953d
000002c0: a47d a73d c5a1 ff3c ab5a c73e 5bc9 f13d
000002d0: 1da0 7bbd 0ef7 2c3d c794 d13d f684 b4bd
000002e0: 39d6 3fbd ff7c c43d 6460 63be e1e1 fabc
000002f0: 9e7b 813d 2741 1fbe db85 023d f30e 07be
00000300: a99b febc 1ac5 09be 80e9 b1bd f1a9 01be
00000310: 3d82 5bbe da34 a5bd b995 3f3d 19b1 b4bc
00000320: 996e 0abe 4c9f e3bd 8f92 1abe 75a6 8abe
00000330: 33c4 0fbc 9332 9cbe db75 bf3d 907e 50bb
00000340: 826a 81be fed8 a1be 39af 0b3d 41b8 913d
00000350: 40da f237 f7d4 d93c bf5e 31be c531 cdbd
00000360: e8f1 253e 180f 36be 3f57 2bbe 8dc8 3b3e
00000370: 4274 923d 3b31 10bd 698d 7d3e 7159 90be
00000380: d002 64bc

bias f4 [5]
0.1117084 -0.14440665 -0.13571683 0.12433109 0.14564654
00000000: 60c7 e43d 56df 13be 5af9 0abe 4ca1 fe3d
00000010: 5e24 153e

weight f4 [5]
0.9244584 0.73971164 0.7809432 0.75926083 0.87124646
00000000: 4ea9 6c3f be5d 3d3f e5eb 473f eb5e 423f
00000010: 020a 5f3f

bias f4 [5]
0.0320702 -0.30849943 -0.20993374 -0.00041911198 -0.20792802
00000000: 0b5c 033d a3f3 9dbe dff8 56be 42bc dbb9
00000010: 15eb 54be

running_mean f4 [5]
0.21056965 0.43113178 0.75929415 0.7253564 -0.8420312
00000000: 929f 573e 4ebd dc3e 1a61 423f f5b0 393f
00000010: 5b8f 57bf

running_var f4 [5]
1.0703998 1.5380155 2.7207336 1.2382826 0.5368776
00000000: dc02 893f b1dd c43f 8020 2e40 0b80 9e3f
00000010: cf70 093f

weight f4 [5, 5, 3, 3]
0.14585938 -0.046415478 -0.020074826 0.12978636 -0.012075143 0.07686149 0.22044504 0.12326589
0.13465008 -0.22813755 0.14350194 0.106892094 0.070265844 -0.0647844 -0.08267785 0.05415145
0.08000777 0.1218304 -0.023766702 0.098287314 0.16483544 0.07033341 0.11664583 0.07627451
0.16515522 0.123494625 0.06318735 0.3168347 0.10076647 -0.023226218 0.110645086 0.23032258
0.22052613 0.21306966 0.20022523 0.2883019 0.06903015 0.15229098 0.03789924 0.07334058
-0.097852 0.07323263 0.22135659 -0.080561124 0.10007888 -0.16092172 -0.25967354 -0.28073642
0.0116586825 0.073705755 -0.06753442 0.025620678 -0.23680495 -0.1332426 0.056639627 0.029984932
-0.14486673 -0.036035433 0.11189113 0.11153026 0.07848776 -0.03202635 0.021273531 -0.04977822
0.053026073 0.057025157 -0.120489255 0.23274799 0.38566735 0.1313454 0.09549284 0.41623485
-0.17632696 -0.08963427 -0.2182136 -0.037755363 0.033725888 0.005680313 0.04572079 0.11825847
0.0866827 0.009711178 0.08736794 -0.059272774 -0.06990272 -0.07852662 -0.18733299 -0.06573746
-0.08029322 -0.08381295 -0.048409823 -0.12299898 -0.08345972 -0.0376615 0.01122338 -0.09863209
0.05826593 -0.17164226 -0.13251583 0.0453954 0.050100587 0.016081743 0.15821023 0.005206618
-0.15996976 0.08115687 0.05337761 -0.09950403 0.2441028 0.31753764 0.4865553 0.00058374886
0.16136883 0.23242876 -0.045167867 0.07924986 0.01648175 0.06377542 0.14499375 0.06847806
0.014879402 0.12596928 0.0020607498 -0.1272042 -0.02567812 0.11662176 -0.025853768 -0.005540825
0.005374477 0.23332521 -0.11832564 0.11832303 -0.05349877 -0.13487309 -0.018514661 0.035996463
-0.23029685 -0.06662955 0.044351593 -0.06836118 -0.026201095 -0.29372662 -0.20029086 -0.2311698
-0.00549167 -0.031076906 0.14177005 -0.17111747 0.06507983 0.10245002 -0.04766812 0.06663462
0.06635553 0.32301655 0.31888646 -0.06033651 0.0079871155 0.183269 -0.029609608 -0.13507731
0.13597414 -0.0333371 0.2021689 0.20163327 -0.015882468 0.26280266 0.21862125 0.0075460696
0.025616089 0.050006926 -0.027423633 -0.017648676 -0.024200398 0.04659893 0.09104525 -0.12924036
-0.036898706 -0.0761493 -0.115220815 -0.12119075 0.15112299 -0.1611398 0.11940065 0.040743697
0.016140854 -0.003209269 -0.022604212 -0.18392737 -0.02269514 0.03137128 0.0653607 -0.072496265
0.098507896 0.21795379 0.12246078 0.2854741 0.06042378 0.12331472 -0.022182163 -0.16414306
-0.056982823 -0.10154807 -0.51814324 -0.021168334 -0.069186375 0.07999242 0.04037011 -0.06617181
0.009018614 0.095695764 -0.061217807 -0.0626015 -0.15695061 -0.10042434 -0.20305403 0.094186224
0.02662156 0.105873 0.1551084 0.20636925 0.1767173 0.15946181 0.17913632 -0.10109006
0.027464297
00000000: 295c 153e 281e 3ebd f673 a4bc b7e6 043e
00000010: d2d6 45bc 8f69 9d3d 58bc 613e d472 fc3d
00000020: b6e1 093e e49c 69be 2cf2 123e 3eea da3d
00000030: 8ae7 8f3d afad 84bd 0153 a9bd e9cd 5d3d
00000040: 1ddb a33d 3782 f93d 63b2 c2bc dc4a c93d
00000050: 9fca 283e f60a 903d 02e4 ee3d cf35 9c3d
00000060: 731e 293e c0ea fc3d 5f68 813d 2838 a23e
00000070: a75e ce3d e944 bebc e499 e23d afd9 6b3e
00000080: 9ad1 613e ef2e 5a3e d807 4d3e 4e9c 933e
00000090: ae5f 8d3d 2bf2 1b3e 3c3c 1b3d 9633 963d
000000a0: a166 c8bd fdfa 953d 4dab 623e 3bfd a4bd
000000b0: 28f6 cc3d aac8 24be eef3 84be afbc 8fbe
000000c0: 0f04 3f3c 0bf3 963d 7c4f 8abd 75e2 d13c
000000d0: ff7c 72be c070 08be f4fe 673d f6a2 f53c
000000e0: f257 14be e499 13bd 2d27 e53d fa69 e43d
000000f0: 31be a03d 102e 03bd d445 ae3c 3fe4 4bbd
00000100: de31 593d 3693 693d 12c3 f6bd 7d55 6e3e
00000110: 3176 c53e 697f 063e c091 c33d bc1c d53e
00000120: 0e8f 34be 2c92 b7bd 6373 5fbe 5ea5 1abd
00000130: 2824 0a3d eb21 ba3b b945 3b3d 7f31 f23d
00000140: b386 b13d a21b 1f3c f6ed b23d 02c8 72bd
00000150: 2829 8fbd 91d2 a0bd 38d4 3fbe 5da1 86bd
00000160: c670 a4bd 20a6 abbd 6149 46bd e4e6 fbbd
00000170: eeec aabd f242 1abd 45e2 373c 9fff c9bd
00000180: 41a8 6e3d fdc2 2fbe 3bb2 07be 87f0 393d
00000190: 4636 4d3d dcbd 833c dd01 223e 479c aa3b
000001a0: 1dcf 23be 9335 a63d 7ba2 5a3d c5c8 cbbd
000001b0: 16f6 793e 4b94 a23e c71d f93e b906 193a
000001c0: df3d 253e ce01 6e3e f101 39bd c04d a23d
000001d0: bc04 873c b09c 823d 3e79 143e 3a3e 8c3d
000001e0: bcc8 733c 17fe 003e a50d 073b d141 02be
000001f0: ec5a d2bc 64d7 ee3d 48cb d3bc cf8f b5bb
00000200: 611c b03b ceec 6e3e b754 f2bd 5853 f23d
00000210: 8721 5bbd 2c1c 0abe 0fac 97bc 0771 133d
00000220: f0d2 6bbe 1375 88bd 04aa 353d f200 8cbd
00000230: aea3 d6bc 5663 96be 0c19 4dbe c7b7 6cbe
00000240: 78f3 b3bb ff94 febc 2b2c 113e 6b39 2fbe
00000250: 9348 853d 51d1 d13d a63f 43bd bb77 883d
00000260: 68e5 873d 6d62 a53e 1645 a33e 6b23 77bd
00000270: 64dc 023c deaa 3b3e d98f f2bc b551 0abe
00000280: ce3c 0b3e 7c8c 08bd 5d05 4f3e f478 4e3e
00000290: f31b 82bc 128e 863e 40de 5f3e 0545 f73b
000002a0: d5d8 d13c 10d4 4c3d 87a7 e0bc f593 90bc
000002b0: ea3f c6bc 85de 3e3d ef75 ba3d 9657 04be
000002c0: 1923 17bd 2af4 9bbd e4f8 ebbd db32 f8bd
000002d0: fcbf 1a3e d501 25be 5488 f43d dde2 263d
000002e0: d339 843c 9952 52bb 782c b9bc 7557 3cbe
000002f0: 29eb b9bc 2c7f 003d d5db 853d ec78 94bd
00000300: 82be c93d 472f 5f3e b8cc fa3d a929 923e
00000310: ed7e 773d 6e8c fc3d 5eb7 b5bc 1e15 28be
00000320: d266 69bd 6ff8 cfbd 09a5 04bf 3769 adbc
00000330: 96b1 8dbd 11d3 a33d 215b 253d 1685 87bd
00000340: cfc2 133c 24fc c33d 86bf 7abd 3735 80bd
00000350: a9b7 20be 47ab cdbd 65ed 4fbe b5e4 c03d
00000360: 7515 da3c f2d3 d83d bdd4 1e3e 7652 533e
00000370: 61f5 343e f549 233e 836f 373e 4e08 cfbd
00000380: cefc e03c

bias f4 [5]
-0.100344494 0.08039137 -0.09170511 -0.061931908 0.07180194
00000000: 6a81 cdbd 3ba4 a43d e4cf bbbd 50ac 7dbd
00000010: e50c 933d

weight f4 [5]
0.779271 0.96992016 1.1909045 0.8812565 0.7648492
00000000: 4e7e 473f b04c 783f 8f6f 983f 079a 613f
00000010: 28cd 433f

bias f4 [5]
-0.077297226 -0.12587643 0.009470303 -0.15206134 -0.1520489
00000000: 024e 9ebd c0e5 00be 5429 1b3c f8b5 1bbe
00000010: b5b2 1bbe

running_mean f4 [5]
1.1737547 0.2361838 0.573436 0.3135383 -0.14847912
00000000: 983d 963f 2bda 713e b4cc 123f 1888 a03e
00000010: e90a 18be

running_var f4 [5]
0.7423459 0.99859 1.0766627 0.8818369 1.3262347
00000000: 620a 3e3f 98a3 7f3f 15d0 893f 10c0 613f
00000010: 0fc2 a93f

weight f4 [5, 5, 3, 3]
0.076822 -0.026272183 0.0075065186 0.011032683 -0.10902064 -0.021342373 -0.032467417 0.14095488
0.063154966 -0.0008393499 -0.078942835 -0.06118203 -0.029226996 0.07261271 -0.11151391 0.05943333
0.017461423 -0.1937031 0.08673858 0.21739152 0.05032192 0.051261306 -0.20768546 -0.1019141
-0.13299549 -0.17017613 0.039430205 0.35350057 0.14065012 -0.09094064 0.108547874 0.31096414
-0.10773665 0.2772856 0.2700412 0.046314884 0.022037202 0.09601206 0.12344321 -0.0144625455
-0.003720613 0.05268593 0.02868561 -0.01718883 0.11721737 -0.2063335 0.09407747 -0.08368838
-0.12423898 -0.100830436 -0.022286579 -0.084941275 0.04407004 0.013929789 -0.13152532 -0.1071782
-0.07155959 -0.058449205 0.0016990958 -0.0273756 -0.0677481 -0.040703077 -0.08387292 -0.28677955
-0.07117151 0.26211184 -0.08689487 0.14889933 0.75730103 -0.15623114 -0.15837847 -0.023986857
0.12824744 0.042584382 0.0128122335 -0.07013305 -0.05159088 -0.012317327 -0.009152611 0.0551002
-0.01646411 -0.086501375 0.06606018 -0.05870426 -0.11321974 0.03895474 0.012903609 0.017247343
-0.0013193074 -0.029976774 -0.1761723 -0.06828525 0.17690696 -0.08707007 0.019867845 -0.022757191
-0.32873932 0.039860137 0.025241379 -0.16221043 0.054246325 -0.009718206 -0.08415347 -0.007825975
-0.0019078177 -0.03125653 0.0229293 0.088764526 0.1322341 0.031036546 0.51873624 -0.064587496
0.063355744 -0.2174891 -0.2697901 0.04914955 0.0460052 -0.054563213 -0.09842902 -0.12646958
-0.24142264 -0.013416059 -0.17562012 -0.104006395 -0.0010564796 -0.05741816 -0.22715734 0.09206189
-0.012156446 -0.16763026 -0.020004775 0.12899758 -0.06641646 0.06255705 0.10875102 -0.15343079
0.022949578 0.05685486 -0.0663144 -0.013138364 -0.19290344 0.058637056 -0.060773116 -0.04090784
-0.16714838 0.052214444 -0.10130044 -0.17928888 -0.09240725 -0.033799488 -0.059763964 0.11686257
0.060447015 0.076728314 -0.017125107 -0.44282627 0.27217293 0.061194934 0.03597671 0.036197953
-0.012153409 0.18701604 -0.28163093 -0.086789496 0.08751809 -0.22741385 -0.008561501 0.029542228
-0.13411553 0.12461118 -0.004346017 -0.21406266 0.11022339 0.028714191 -0.2142279 -0.016038632
0.037407786 -0.23098962 0.10617164 0.12399769 -0.13040031 -0.10012836 -0.12762155 -0.10632639
-0.14517175 0.017957391 0.08103182 -0.12629966 -0.07355818 0.171377 0.10330104 -0.17797855
0.105811685 -0.08621397 0.020060021 0.017612677 -0.086534955 0.102175735 0.23941568 -0.03410935
-0.3565512 -0.2334069 -0.07461794 -0.13661975 -0.50024307 -0.18894115 -0.14135861 0.113439284
0.018996732 -0.27322197 -0.037877396 0.0081027085 -0.21455905 -0.08355863 0.02086631 -0.20350641
0.09543868 -0.14779289 -0.0067492602 0.043572497 0.008876614 0.10141148 0.07988727 0.057661604
0.037910398
00000000: da54 9d3d c338 d7bc 3ef9 f53b 6dc2 343c
00000010: 3746 dfbd 33d6 aebc 8efc 04bd 7a56 103e
00000020: 6457 813d d107 5cba c8ac a1bd 029a 7abd
00000030: 746d efbc f9b5 943d 6861 e4bd 5d70 733d
00000040: 420b 8f3c 1b5a 46be ffa3 b13d e29b 5e3e
00000050: 5c1e 4e3d 60f7 513d 7fab 54be 57b8 d0bd
00000060: f82f 08be a742 2ebe 9181 213d 07fe b43e
00000070: 9606 103e 163f babd 594e de3d b136 9f3e
00000080: 08a5 dcbd 61f8 8d3e d742 8a3e adb4 3d3d
00000090: 5d87 b43c f9a1 c43d cbcf fc3d 50f4 6cbc
000000a0: 87d5 73bb 34cd 573d 16fe ea3c 97cf 8cbc
000000b0: a90f f03d 1749 53be b0ab c03d d064 abbd
000000c0: 0271 febd 3080 cebd 5892 b6bc b1f5 adbd
000000d0: c982 343d c539 643c 93ae 06be 3e80 dbbd
000000e0: d68d 92bd 6f68 6fbd 32b4 de3a cb42 e0bc
000000f0: 84bf 8abd 45b8 26bd 91c5 abbd c5d4 92be
00000100: 5ec2 91bd 8633 863e f0f5 b1bd 1179 183e
00000110: 7bde 413f 0efb 1fbe f72d 22be 1680 c4bc
00000120: 4c53 033e f66c 2e3d 67ea 513c eba1 8fbd
00000130: f550 53bd 9dce 49bc d5f4 15bc bfb0 613d
00000140: bedf 86bc a227 b1bd 8f4a 873d e173 70bd
00000150: c0df e7bd 018f 1f3d a969 533c 4d4a 8d3c
00000160: 9cec acba da91 f5bc 8366 34be 23d9 8bbd
00000170: 1927 353e cb51 b2bd e4c1 a23c 4a6d babc
00000180: 8550 a8be 6244 233d 02c7 ce3c 7e1a 26be
00000190: 6531 5e3d 1c39 1fbc a858 acbd 8538 00bc
000001a0: bd0f faba d906 00bd 3ad6 bb3c 2dca b53d
000001b0: 6068 073e 5b40 fe3c e6cb 043f 7346 84bd
000001c0: a8c0 813d 76b5 5ebe ee21 8abe 0a51 493d
000001d0: f36f 3c3d ad7d 5fbd 2795 c9bd 3e81 01be
000001e0: 7f37 77be 08cf 5bbc c3d5 33be 4e01 d5bd
000001f0: 9379 8aba 4e2f 6bbd ef9b 68be f28a bc3d
00000200: d52b 47bc 44a7 2bbe 0ee1 a3bc f117 043e
00000210: 5a05 88bd e91d 803d dbb8 de3d f61c 1dbe
00000220: c100 bc3c a4e0 683d d8cf 87bd 4b42 57bc
00000230: 7b88 45be 692d 703d 3bed 78bd fb8e 27bd
00000240: f228 2bbe d0de 553d 9b76 cfbd 8197 37be
00000250: 0340 bdbd 5571 0abd 0fcb 74bd a555 ef3d
00000260: 4a97 773d bc23 9d3d f449 8cbc 20ba e2be
00000270: 405a 8b3e 8aa7 7a3d 515c 133d 4e44 143d
00000280: 181f 47bc 2281 3f3e ee31 90be b1be b1bd
00000290: af3c b33d 2ddf 68be 8a45 0cbc 8b02 f23c
000002a0: 9555 09be 2534 ff3d 0869 8ebb 3e33 5bbe
000002b0: cdbc e13d 063a eb3c 8f5e 5bbe 7363 83bc
000002c0: e838 193d 8b88 6cbe 8470 d93d 80f2 fd3d
000002d0: a987 05be 1910 cdbd 39af 02be a6c1 d9bd
000002e0: e7a7 14be 611b 933c 03f4 a53d b354 01be
000002f0: aca5 96bd 747d 2f3e 7f8f d33d 0240 36be
00000300: ccb3 d83d f390 b0bd ea54 a43c 7648 903c
00000310: 3d39 b1bd 8341 d13d 6229 753e 3fb6 0bbd
00000320: e18d b6be 3802 6fbe 4ad1 98bd 0ce6 0bbe
00000330: ee0f 00bf ca79 41be 50c0 10be db52 e83d
00000340: 099f 9b3c c0e3 8bbe 5425 1bbd 39c1 043c
00000350: 5eb5 5bbe c920 abbd d3ef aa3c fc63 50be
00000360: 5b75 c33d 0557 17be e628 ddbb 1379 323d
00000370: 386f 113c d2b0 cf3d f09b a33d 932e 6c3d
00000380: ef47 1b3d

bias f4 [5]
0.0980496 0.057579886 0.03029081 0.13826367 0.059410837
00000000: 3bce c83d e3d8 6b3d 6f24 f83c fe94 0d3e
00000010: c758 733d

weight f4 [5]
0.89382446 1.2991457 1.1996114 1.3186636 1.3639156
00000000: aed1 643f 684a a63f de8c 993f f8c9 a83f
00000010: c994 ae3f

bias f4 [5]
-0.13903841 -0.0024732612 0.12804905 0.35151815 0.4160568
00000000: 1660 0ebe 7016 22bb 4a1f 033e 30fa b33e
00000010: 6605 d53e

running_mean f4 [5]
0.2856638 0.107030965 -0.0823523 0.030849034 -0.7879261
00000000: 8742 923e 0d33 db3d 53a8 a8bd 1db7 fc3c
00000010: 86b5 49bf

running_var f4 [5]
0.29701015 0.81984496 0.33023447 0.23177853 1.5397278
00000000: b711 983e 5ce1 513f 7e14 a93e 5a57 6d3e
00000010: cd15 c53f

weight f4 [15, 5, 1, 1]
0.055274807 0.15321423 0.16305453 0.54443884 0.195994 0.2761045 -0.052672755 -0.12688237
0.063849635 0.4230205 0.14662583 0.43877247 0.35262477 -0.14945635 0.0017242627 0.14079382
-0.037623737 0.41177148 -0.2285715 -0.17165738 -0.008634757 0.18387648 0.3409725 -0.052615818
-0.36798295 -0.08608808 0.433985 -0.26649934 0.100701466 0.027381556 -0.34726983 -0.6135306
0.23029792 0.014560877 0.25980836 -0.30426463 -0.41589278 -0.1162921 -0.092737265 -0.49484196
-0.19913532 -0.14182964 0.2366571 0.2616547 -0.351844 -0.10946184 -0.28718176 -0.40595445
-0.05393418 0.32060638 0.32968813 -0.31124863 0.13473111 -0.36758476 -0.32724717 0.13961127
0.37970945 0.18237345 0.055100754 -0.14986743 0.27897483 0.21411487 -0.011469912 -0.31256548
0.33408454 -0.12778454 0.045698125 0.4023303 0.17767009 0.1408176 -0.29397666 -0.1843278
-0.10860537 -0.5153745 -0.07068439
00000000: d667 623d 31e4 1c3e c4f7 263e 5860 0b3f
00000010: a7b2 483e 925d 8d3e 63bf 57bd 74ed 01be
00000020: 99c3 823d 2596 d83e 1525 163e c9a6 e03e
00000030: 3c8b b43e 160b 19be a800 e23a 412c 103e
00000040: 591b 1abd b6d3 d23e a60e 6abe f4c6 2fbe
00000050: cc78 0dbc 1e4a 3c3e f393 ae3e af83 57bd
00000060: 4368 bcbe f34e b0bd 4833 de3e 9a72 88be
00000070: 923c ce3d 494f e03c 5acd b1be 5710 1dbf
00000080: 38d3 6b3e bf90 6e3c 9a05 853e 93c8 9bbe
00000090: e6ef d4be 8d2a eebd 09ed bdbd ed5b fdbe
000000a0: 21ea 4bbe ca3b 11be 3d56 723e 9bf7 853e
000000b0: e624 b4be 872d e0bd 7d09 93be 43d9 cfbe
000000c0: 16ea 5cbd 8526 a43e e2cc a83e fb5b 9fbe
000000d0: f4f6 093e 1234 bcbe f18c a7be 42f6 0e3e
000000e0: 4769 c23e 1bc0 3a3e 54b1 613d d976 19be
000000f0: cad5 8e3e ee40 5b3e 4cec 3bbc 9508 a0be
00000100: 210d ab3e f3d9 02be f52d 3b3d 3dfe cd3e
00000110: 26ef 353e 7d32 103e 1c84 96be 6dc0 3cbe
00000120: 7e6c debd 95ef 03bf fac2 90bd

weight f4 [15]
0.81984574 0.8886351 1.2484006 1.0779201 0.98702353 1.0487803 0.8312942 1.1291122
0.7839549 1.0802644 1.1139677 0.99510294 1.1091051 0.7703878 0.824036
00000000: 69e1 513f 977d 633f 97cb 9f3f 49f9 893f
00000010: 93ad 7c3f 6f3e 863f b2cf 543f c086 903f
00000020: 45b1 483f 1b46 8a3f 7e96 8e3f 11bf 7e3f
00000030: 28f7 8d3f 2338 453f 06f4 523f

bias f4 [15]
-0.20797904 0.24460475 -0.09761281 -0.18012315 -0.14985242 -0.014844731 -0.015093751 0.08179671
0.036054067 0.32721078 0.0048339833 -0.022788536 -0.08831354 -0.091509216 -0.08389323
00000000: 75f8 54be ab79 7a3e 3ae9 c7bd 3472 38be
00000010: ea72 19be 5137 73bc c84b 77bc 0985 a73d
00000020: 6ead 133d 2c88 a73e 6466 9e3b 06af babc
00000030: bbdd b4bd 2f69 bbbd 37d0 abbd

running_mean f4 [15]
0.7574018 0.40536326 0.44714138 0.057511725 0.018410893 0.0826878 -0.1785476 -0.9002596
-0.09721267 -0.30031368 -0.36238 0.3377087 0.2862037 0.44432327 -0.7752229
00000000: 16e5 413f c68b cf3e b7ef e43e 6a91 6b3d
00000010: 71d2 963c 3958 a93d 2fd5 36be 6a77 66bf
00000020: 7017 c7bd b7c2 99be df89 b9be 28e8 ac3e
00000030: 4b89 923e 577e e33e 0275 46bf

running_var f4 [15]
0.7658566 0.13825752 0.739911 0.23803234 0.51304984 0.061072346 0.5289847 0.58025295
0.2653167 1.0324087 0.16242297 0.6195949 0.16860582 0.36320454 0.99028724
00000000: 2e0f 443f 6193 0d3e cf6a 3d3f c0be 733e
00000010: 3c57 033f ff26 7a3d 8b6b 073f 758b 143f
00000020: 97d7 873e f825 843f 3552 263e c59d 1e3f
00000030: 01a7 2c3e f2f5 b93e 7783 7d3f

weight f4 [5, 5, 3, 3]
0.17350854 -0.0021387187 0.14795893 0.025021313 0.2161223 -0.048033834 -0.0086741205 0.10280649
0.09658859 0.20572102 0.112714775 -0.11467877 0.041772507 -0.023627758 -0.19849204 -0.04633631
0.05087513 -0.10250617 0.030154187 0.21866459 0.11759846 -0.0094979415 0.19125237 -0.05290359
-0.056619823 0.0066130958 -0.08454491 0.024559932 0.28591454 0.040952843 0.03073369 0.009766219
0.30995068 0.0313468 0.18209155 -0.12514289 0.043212604 0.13042599 0.18400061 0.07390221
0.22889185 0.32264596 0.04387233 0.19601005 -0.24446464 -0.08520266 -0.09346605 0.032309838
-0.092954814 -0.20397714 -0.056612417 -0.18222237 0.0792688 -0.25198367 -0.034195658 0.12684351
0.10531825 -0.025633007 0.07068629 -0.14305979 0.032243185 0.0603533 -0.058416873 -0.2948537
-0.231615 -0.13329203 -0.084487975 -0.34705892 -0.007275792 0.025717065 -0.15948065 -0.16086566
-0.05700849 -0.055167075 0.08365231 0.24535921 -0.016923167 0.119400516 0.19287704 -0.15743291
0.11537639 -0.1668296 -0.17356235 0.021863773 0.17493898 -0.026860913 0.23294884 -0.015150642
-0.2115112 0.03693318 -0.043365724 0.023674417 0.23951413 -0.28144065 -0.16694526 -0.00814704
0.061369754 0.037846476 0.052456703 0.16685182 0.11557134 -0.12030162 0.14415972 -0.1451286
-0.077252276 0.11057574 -0.0045065107 -0.21286657 -0.04433523 0.073843434 0.21446204 -0.21849121
0.261808 0.07648351 -0.111281574 -0.0012088729 -0.07193361 -0.013812525 -0.13969946 0.003103631
-0.10433744 0.26491365 0.2915503 -0.11892255 0.10880335 -0.048443377 -0.11482645 -0.14056326
0.20267677 -0.07847841 0.13174616 0.14805274 -0.039494254 -0.15623991 0.11108593 -0.09809925
0.26496792 0.0759284 -0.081286244 0.16654839 -0.021805169 -0.15811151 -0.0895252 -0.004676042
0.12015057 0.2120399 0.013898065 0.08861388 -0.05107414 -0.06598772 0.083652794 -0.14662258
-0.014225089 0.27900493 0.063171215 -0.11257031 0.008450929 -0.011799289 -0.05330486 -0.0466763
0.37368104 -0.13339514 0.14040484 -0.13225839 0.014798102 0.27849662 0.039670043 0.021018634
-0.17435506 0.23646645 -0.14876674 0.04906332 -0.011631098 -0.023544962 0.10408163 0.012979556
-0.07118521 0.03859382 0.17633829 0.03280389 -0.16495004 0.028241906 -0.07216709 -0.0763055
0.038726296 -0.31738058 0.11590533 -0.13096647 -0.3324316 -0.033941623 0.13770624 -0.052962102
0.041706514 -0.07038948 0.14461902 0.015655799 0.050323762 0.015771106 -0.08345326 -0.109060474
-0.23254031 0.18160018 -0.14065167 -0.17539074 -0.0985482 0.06790856 -0.2336139 0.17689946
0.009236178 0.038873512 -0.2738849 -0.3492258 -0.24268445 -0.18238774 -0.17587037 -0.14294912
0.13207306 -0.2520471 -0.2621199 -0.24347381 -0.23970471 -0.24130288 -0.10609525 -0.08750886
-0.14723566
00000000: 39ac 313e bf29 0cbb 8c82 173e 7ff9 cc3c
00000010: 2a4f 5d3e 20bf 44bd e61d 0ebc 368c d23d
00000020: 3dd0 c53d 88a8 523e 01d7 e63d b4dc eabd
00000030: a619 2b3d 008f c1bc 7f41 4bbe 25cb 3dbd
00000040: 7162 503d c1ee d1bd ea05 f73c 9ce9 5f3e
00000050: 76d7 f03d 419d 1bbc a9d7 433e 6fb1 58bd
00000060: 30ea 67bd abb2 d83b e225 adbd e931 c93c
00000070: 6463 923e 2bbe 273d 38c5 fb3c 7e02 203c
00000080: dbb1 9e3e 8165 003d 3576 3a3e 7525 00be
00000090: b3ff 303d 648e 053e a86a 3c3e 0b5a 973d
000000a0: a062 6a3e da31 a53e 79b3 333d dcb6 483e
000000b0: f054 7abe bb7e aebd 216b bfbd 5257 043d
000000c0: 185f bebd 62df 50be 6ce2 67bd 8098 3abe
000000d0: ae57 a23d 0104 81be bf10 0cbd 44e3 013e
000000e0: 18b1 d73d 50fc d1bc f9c3 903d 447e 12be
000000f0: 6e11 043d 0635 773d 8846 6fbd 10f7 96be
00000100: 7c2c 6dbe b57d 08be 0808 adbd b5b1 b1be
00000110: c469 eebb 98ac d23c e54e 23be f8b9 24be
00000120: bc81 69bd dff6 61bd e751 ab3d 723f 7b3e
00000130: 74a2 8abc 4288 f43d 8f81 453e 1836 21be
00000140: 754a ec3d 61d5 2abe 54ba 31be a81b b33c
00000150: 3423 333e 6b0b dcbc 248a 6e3e 663a 78bc
00000160: 6496 58be 3f47 173d 42a0 31bd daf0 c13c
00000170: 3143 753e fd18 90be b3f3 2abe 2a7b 05bc
00000180: da5e 7b3d e804 1b3d d7dc 563d 34db 2a3e
00000190: abb0 ec3d b260 f6bd 9b9e 133e 979c 14be
000001a0: 7136 9ebd 8975 e23d 5aab 93bb b2f9 59be
000001b0: dc98 35bd 3a3b 973d f09b 5b3e 29bc 5fbe
000001c0: b30b 863e 63a3 9c3d 98e7 e3bd 0b73 9eba
000001d0: ee51 93bd ee4d 62bc 600d 0fbe 4a66 4b3b
000001e0: deae d5bd c3a2 873e 1546 953e aa8d f3bd
000001f0: 4ad4 de3d 906c 46bd 212a ebbd d1ef 0fbe
00000200: 808a 4f3e 4ab9 a0bd 77e8 063e 239b 173e
00000210: bac4 21bd 5bfd 1fbe 0581 e33d 42e8 c8bd
00000220: e0a9 873e 5980 9b3d 6779 a6bd a98b 2a3e
00000230: c1a0 b2bc fce7 21be fd58 b7bd 7c39 99bb
00000240: 8111 f63d fd20 593e b6b4 633c 327b b53d
00000250: 1e33 51bd 9224 87bd 2852 ab3d 3b24 16be
00000260: 5910 69bc bcd9 8e3e e95f 813d 438b e6bd
00000270: c475 0a3c ce51 41bc 3256 5abd a62f 3fbd
00000280: 1f53 bf3e bc98 08be 49c6 0f3e be6e 07be
00000290: bd73 723c 1c97 8e3e 0e7d 223d 452f ac3c
000002a0: 228a 32be 4324 723e 4f56 18be 9ff6 483d
000002b0: 5c90 3ebc 5de1 c0bc c028 d53d 34a8 543c
000002c0: 8dc9 91bd 8e14 1e3d 0692 343e 5f5d 063d
000002d0: aae8 28be 925b e73c 57cc 93bd 0f46 9cbd
000002e0: 779f 1e3d b57f a2be c65f ed3d 131c 06be
000002f0: 7a34 aabe 5f06 0bbd dd02 0d3e caee 58bd
00000300: 73d4 2a3d 5c28 90bd 0217 143e 9740 803c
00000310: 4a20 4e3d 6832 813c 8be9 aabd 195b dfbd
00000320: 0c1f 6ebe 66f5 393e fe06 10be a199 33be
00000330: a4d3 c9bd a513 8b3d 7b38 6fbe 2225 353e
00000340: 5753 173c d539 1f3d a43a 8cbe b9cd b2be
00000350: 4682 78be dac3 3abe 5d17 34be 4161 12be
00000360: 293e 073e 510c 81be 9434 86be 3351 79be
00000370: 2775 75be 1a18 77be 7748 d9bd d837 b3bd
00000380: f2c4 16be

bias f4 [5]
-0.016461143 -0.06615422 -0.06877377 -0.107524954 -0.14586215
00000000: 85d9 86bc dd7b 87bd 43d9 8cbd 0b36 dcbd
00000010: e35c 15be

weight f4 [5]
1.200222 0.828793 1.0611907 1.0319794 0.8965311
00000000: e0a0 993f c72b 543f 19d5 873f e717 843f
00000010: 1083 653f

bias f4 [5]
-0.07434427 -0.085089505 0.04932867 -0.15779132 -0.10435941
00000000: cf41 98bd 6843 aebd dc0c 4a3d 0c94 21be
00000010: 63ba d5bd

running_mean f4 [5]
0.7381276 -0.60647297 0.042433187 0.3072391 -1.2906655
00000000: eef5 3c3f d041 1bbf 6cce 2d3d 714e 9d3e
00000010: 8734 a5bf

running_var f4 [5]
3.1684008 1.9666083 1.2063397 0.99988306 7.1461444
00000000: 14c7 4a40 d2b9 fb3f 5769 9a3f 56f8 7f3f
00000010: 37ad e440

weight f4 [5, 5, 3, 3]
0.15674227 -0.03875664 0.03449681 0.030938402 -0.08638134 -0.10847029 0.27278274 0.06857227
-0.091861956 -0.0984768 -0.14797963 -0.062273007 -0.049632378 -0.19402546 -0.01532692 -0.054625414
-0.32791412 0.031654134 -0.022771373 0.17864494 -0.016288472 0.38094598 0.20965663 -0.061513007
0.10478753 0.23872696 0.07512443 -0.020924635 -0.06730577 0.11709546 -0.13518578 0.04702358
-0.007152489 -0.34832644 -0.16841686 -0.0553714 -0.06687278 -0.016989209 -0.34062353 -0.03129693
0.025539037 -0.11709293 0.16838232 0.04308797 -0.14433382 -0.20248424 -0.10493753 0.11362497
0.088654906 -0.07393655 -0.19851656 -0.13472515 0.04910568 -0.03082657 0.06742842 0.052079543
0.018782005 0.18703932 0.09208181 0.14590621 0.12555236 -0.013860658 -0.16311765 0.018789427
-0.1655354 -0.013867947 0.3681992 -0.13015957 -0.0050625047 -0.020661792 -0.117832705 -0.21471901
-0.0766763 0.031362977 -0.04933505 0.0149106765 0.08711787 -0.15571924 -0.012829976 0.014450733
-0.14684394 0.2513734 0.09581137 0.22116944 0.3169162 -0.039843943 0.2556889 -0.14512798
-0.20943291 -0.023995949 -0.26400542 0.14366852 -0.12289364 -0.23544689 0.15642266 -0.061714113
-0.031755198 0.035082087 0.09890921 0.045732047 -0.044138975 0.053164504 -0.13053286 0.027619295
-0.15199576 0.010579209 0.013557251 0.25954738 -0.24665822 -0.20582451 -0.03934329 -0.10153924
0.00051122747 0.007929357 0.046025544 0.120967895 0.037458368 -0.035146702 -0.21529968 0.015815565
0.027481472 0.018976187 -0.14572906 0.16870359 -0.053397343 0.21008971 0.07799936 0.23807721
0.14093487 -0.16952515 0.025772003 0.17176396 -0.029678507 0.14999007 0.36176136 0.026565341
-0.11751122 0.32372436 -0.17473939 -0.08550205 0.03928651 0.03918721 -0.04969739 -0.09863141
0.20924447 -0.05988029 -0.029250016 0.022563025 -0.09074584 -0.06943532 0.13877192 -0.013528807
0.12747158 -0.18783753 0.017151836 0.13030793 -0.23832113 -0.044337537 0.08584023 0.014135936
-0.048198264 0.06310805 -0.12236797 -0.051571976 -0.2739145 0.014855819 -0.15556268 -0.18164621
0.027941242 -0.074021704 0.06933153 0.19163488 0.40260404 0.12817726 -0.030210828 0.18740486
0.04435775 0.011508095 -5.1444684e-05 -0.07523747 -0.26475206 0.36548576 0.09114424 0.15842538
0.07698391 0.05529953 -0.056699563 -0.15554367 -0.057542272 -0.06022808 -0.2588778 -0.115182616
-0.09030454 -0.05485046 -0.03872955 0.03320193 -0.1003611 -0.075505264 0.042938985 -0.22826014
-0.006050699 -0.117405005 -0.18716167 -0.15156077 -0.12003131 -0.22871354 -0.20396775 -0.0323524
-0.12017772 0.11419146 0.03011912 -0.031802814 0.054600272 0.10980938 -0.064217985 -0.11425897
-0.2706448 0.006913946 -0.088739015 -0.051779218 -0.32415143 -0.091553144 -0.3634861 -0.117615506
-0.11329138
00000000: 0c81 203e 48bf 1ebd 874c 0d3d 8872 fd3c
00000010: b3e8 b0bd ac25 debd 2eaa 8b3e 9e6f 8c3d
00000020: 1f22 bcbd 34ae c9bd f987 17be fb11 7fbd
00000030: 524b 4bbd 9cae 46be c31d 7bbc e6be 5fbd
00000040: 5ce4 a7be c4a7 013d 088b babc b3ee 363e
00000050: 676f 85bc 5a0b c33e 3ab0 563e 10f5 7bbd
00000060: d89a d63d d774 743e d6da 993d 246a abbc
00000070: 9cd7 89bd bfcf ef3d 246e 0abe cc9b 403d
00000080: 6d5f eabb d857 b2be 7875 2cbe 1fcd 62bd
00000090: 99f4 88bd f42c 8bbc 3566 aebe 3631 00bd
000000a0: 3e37 d13c 6bce efbd 6a6c 2c3e 037d 303d
000000b0: 3fcc 13be 0758 4fbe 7de9 d6bd 35b4 e83d
000000c0: b490 b53d 0c6c 97bd ed47 4bbe 64f5 09be
000000d0: 0a23 493d 0188 fcbc e917 8a3d 5c51 553d
000000e0: b8dc 993c 3c87 3f3e 6395 bc3d 7068 153e
000000f0: cc90 003e d017 63bc 5008 27be 49ec 993c
00000100: 1d82 29be 6336 63bc 9b84 bc3e 8d48 05be
00000110: 5ee3 a5bb eb42 a9bc 4652 f1bd 4ddf 5bbe
00000120: 7708 9dbd 7776 003d 8d13 4abd e94b 743c
00000130: db6a b23d dd74 1fbe d234 52bc c4c2 6c3c
00000140: 425e 16be 04b4 803e c038 c43d 3e7a 623e
00000150: d742 a23e 6733 23bd a8e9 823e 6e9c 14be
00000160: 9575 56be 2793 c4bc b82b 87be d71d 133e
00000170: a9af fbbd fd18 71be 432d 203e f0c7 7cbd
00000180: bd11 02bd 3cb2 0f3d e990 ca3d 8751 3b3d
00000190: 12cb 34bd 06c3 593d 68aa 05be dc41 e23c
000001a0: c7a4 1bbe 6b54 2d3c 3b1f 5e3c 65e3 843e
000001b0: f993 7cbe a9c3 52be 6e26 21bd cef3 cfbd
000001c0: e503 063a 22ea 013c 4885 3c3d 04be f73d
000001d0: f26d 193d fdf5 0fbd 8577 5cbe a58f 813c
000001e0: d320 e13c f373 9b3c 003a 15be a2c0 2c3e
000001f0: 2cb7 5abd c221 573e 21be 9f3d 83ca 733e
00000200: 3b51 103e 0098 2dbe cf1f d33c e4e2 2f3e
00000210: 5720 f3bc ff96 193e c938 b93e 8f9f d93c
00000220: b9a9 f0bd 33bf a53e e2ee 32be b31b afbd
00000230: e4ea 203d c582 203d 7e8f 4bbd 44ff c9bd
00000240: 2f44 563e 0945 75bd bb9d efbc 18d6 b83c
00000250: f4d8 b9bd 1b34 8ebd 3a1a 0e3e eea7 5dbc
00000260: e987 023e 7b58 40be 0282 8c3c 716f 053e
00000270: 740a 74be 479b 35bd 01cd af3d 6a9a 673c
00000280: 8b6b 45bd cb3e 813d 0f9c fabd 233d 53bd
00000290: 853e 8cbe d265 733c d34b 1fbe 7701 3abe
000002a0: 08e5 e43c b198 97bd b0fd 8d3d ef3b 443e
000002b0: 1e22 ce3e e640 033e b37c f7bc 0fe7 3f3e
000002c0: 79b0 353d 738c 3c3c 4fc6 57b8 1a16 9abd
000002d0: 958d 87be f320 bb3e d5a9 ba3d 433a 223e
000002e0: bda9 9d3d c381 623d cd3d 68bd d746 1fbe
000002f0: 72b1 6bbd b8b1 76bd a28b 84be dde4 ebbd
00000300: 96f1 b8bd e0aa 60bd e0a2 1ebd bffe 073d
00000310: 1f8a cdbd 81a2 9abd cae0 2f3d 07bd 69be
00000320: f144 c6bb 0972 f0bd 4fa7 3fbe bf32 1bbe
00000330: fad2 f5bd e233 6abe ecdc 50be f383 04bd
00000340: bd1f f6bd 36dd e93d 5fbc f63c ab43 02bd
00000350: 89a4 5f3d bde3 e03d b884 83bd 9b00 eabd
00000360: f591 8abe 628e e23b cdbc b5bd 7216 54bd
00000370: 2df7 a5be 3780 bbbd da1a babe 66e0 f0bd
00000380: 5005 e8bd

bias f4 [5]
0.13182147 -0.13004194 -0.06226624 0.052791066 -0.11993168
00000000: 35fc 063e b729 05be e30a 7fbd 723b 583d
00000010: be9e f5bd

weight f4 [5]
1.0239161 1.0376501 0.984001 0.91796273 0.9406863
00000000: af0f 833f b8d1 843f 7de7 7b3f 9bff 6a3f
00000010: d1d0 703f

bias f4 [5]
-0.08490364 0.17044275 0.20436214 -0.028056482 0.08771815
00000000: f6e1 adbd 8b88 2e3e 4f44 513e b5d6 e5bc
00000010: 93a5 b33d

running_mean f4 [5]
-0.2219821 0.07968356 0.13385554 0.19488089 -1.0195551
00000000: 474f 63be 2231 a33d 6d11 093e db8e 473e
00000010: c880 82bf

running_var f4 [5]
0.33466265 0.7213782 0.34463155 0.5598003 1.1622727
00000000: e758 ab3e 3eac 383f 8c73 b03e 134f 0f3f
00000010: 5ac5 943f

weight f4 [5, 5, 3, 3]
-0.03387754 0.18164927 0.0347584 -0.056763437 0.14090103 0.010331169 -0.0013368932 -0.1723502
-0.15852234 0.03041038 -0.10535229 0.0302307 0.2555209 -0.13867503 0.04577377 0.37351066
0.14876504 0.14635423 -0.028320711 -0.049698997 -0.23935704 0.1075083 0.0532002 -0.091572404
0.19172864 0.038011596 0.010257886 0.044876717 -0.1309343 -0.0590667 0.10259032 -0.0077774418
-0.064965844 0.10253898 -0.11227353 0.1507093 -0.06600696 -0.006613928 0.11440093 -0.05371308
-0.019605724 0.17371166 -0.1445135 -0.19780706 -0.14189485 0.17877771 -0.20793822 -0.075794496
-0.110351995 -0.27206737 -0.12572534 -0.01471394 -0.22488302 -0.22625385 -0.2416526 -0.06764293
0.049156595 -0.050327785 -0.1393757 -0.084621064 -0.023155164 -0.18677065 -0.08128564 0.21804687
0.07155697 -0.34622318 0.059239015 -0.13102502 -0.115253195 -0.04113521 0.11173473 -0.011774233
-0.10601015 0.17762959 0.12347688 -0.1209756 -0.09864327 -0.19472347 -0.19337901 0.11307649
0.050291885 -0.119615 -0.11490382 -0.10657792 0.019256841 0.012038576 -0.070284486 0.0042298143
0.09561779 0.32654586 0.31745255 -0.027810022 -0.0063805305 0.009709921 0.15479921 0.14634413
-0.06654152 0.23467517 -0.0049376935 -0.0042062327 -0.12149059 -0.040699027 0.11348374 -0.24427877
-0.2709249 0.15126851 0.007588159 0.010635887 0.23315874 0.22198293 0.25861675 -0.26455647
-0.02984236 -0.100147046 -0.053690176 -0.09679135 0.022458047 0.022753228 -0.07015177 0.07727261
-0.087084785 -0.0113332365 -0.13966621 0.2080874 -0.087681845 -0.0099424245 -0.18616304 0.16624045
-0.028098632 0.10130465 -0.07124412 -0.11061613 -0.016575016 0.035431266 0.060389664 0.022465473
-0.0899376 -0.036624495 0.2828813 -0.0159753 -0.0542329 -0.2379761 -0.14719805 -0.0058800685
0.008867091 0.11825008 -0.067437425 -0.21292926 0.18527289 -0.05480307 -0.0836359 0.23892254
0.18102677 -0.11811183 0.103805445 -0.0904128 0.010811811 -0.025512207 -0.20676161 0.008437477
0.19067915 -0.037388753 0.098220885 0.10076512 -0.017635552 -0.17320813 -0.01995318 -0.15410243
-0.15693563 0.023919286 0.31606922 -0.035084732 -0.027141033 -0.0025315501 -0.14624031 0.039493468
0.1662977 0.075933956 -0.044527344 -0.12549528 0.017176192 0.053735856 0.020212952 0.1550363
0.28725612 -0.014169622 0.23984809 0.08895268 -0.3030685 -0.1088301 -0.166543 -0.047311913
0.18279916 0.14249225 0.023885835 0.11052387 -0.03481653 0.12801903 0.018704109 0.39289835
0.26607716 0.17700821 0.059960105 0.07384536 0.15148707 -0.015276559 0.012171057 0.08111318
-0.07890285 -0.22584994 -0.007220235 -0.087924846 -0.040877298 0.18299983 0.19532658 0.1883592
-0.12061993 -0.07804966 -0.06725625 -0.031947926 0.10035642 0.24316177 0.25528273 0.19920059
-0.106705554
00000000: 2dc3 0abd 4402 3a3e d35e 0e3d c780 68bd
00000010: 5c48 103e 1044 293c b13a afba 927c 30be
00000020: ae53 22be 301f f93c f1c2 d7bd 5fa6 f73c
00000030: a3d3 823e d400 0ebe 477d 3b3d ca3c bf3e
00000040: dd55 183e e2dd 153e d600 e8bc 2d91 4bbd
00000050: 031a 75be 502d dc3d 74e8 593d 508a bbbd
00000060: 8354 443e 0cb2 1b3d b110 283c a6d0 373d
00000070: a413 06be edef 71bd e01a d23d e9d9 febb
00000080: d00c 85bd f5ff d13d aaef e5bd 8a53 1a3e
00000090: a82e 87bd a6b9 d8bb 094b ea3d 3f02 5cbd
000000a0: 2f9c a0bc 78e1 313e 59fb 13be ef8d 4abe
000000b0: e24c 11be 8111 373e c2ed 54be 253a 9bbd
000000c0: 3a00 e2bd 6a4c 8bbe 25be 00be bd12 71bc
000000d0: bc47 66be 17af 67be c773 77be 6088 8abd
000000e0: 6d58 493d 8224 4ebd 81b8 0ebe cf4d adbd
000000f0: e6af bdbc ce40 3fbe 1679 a6bd ae47 5f3e
00000100: 768c 923d 2a44 b1be 9ca4 723d 6c2b 06be
00000110: de09 ecbd 657d 28bd 2ed5 e43d b6e8 40bc
00000120: d91b d9bd 88e4 353e 72e1 fc3d 0ec2 f7bd
00000130: 7c05 cabd 9765 47be 2605 46be a694 e73d
00000140: ddfe 4d3d b6f8 f4bd b252 ebbd 8645 dabd
00000150: 86c0 9d3c 733d 453c 50f1 8fbd 419a 8a3b
00000160: 43d3 c33d 0531 a73e 2489 a23e d8d1 e3bc
00000170: c513 d1bb 5c16 1f3c af83 1e3e 3cdb 153e
00000180: ec46 88bd b04e 703e 60cc a1bb 70d4 89bb
00000190: 0fd0 f8bd 06b4 26bd 2a6a e83d 3724 7abe
000001a0: abb6 8abe 22e6 1a3e 17a6 f83b 2542 2e3c
000001b0: 2ac1 6e3e 7e4f 633e 6a69 843e f273 87be
000001c0: f777 f4bc e519 cdbd 3bea 5bbd 8b3a c6bd
000001d0: f0f9 b73c fa64 ba3c bbab 8fbd 1a41 9e3d
000001e0: 8259 b2bd 0aaf 39bc a904 0fbe dd14 553e
000001f0: 8a92 b3bd 8de5 22bc 86a1 3ebe f03a 2a3e
00000200: 1a2f e6bc d078 cf3d 70e8 91bd b68a e2bd
00000210: 54c8 87bc 6020 113d 275b 773d 8309 b83c
00000220: 3431 b8bd 9103 16bd d1d5 903e a2de 82bc
00000230: 5123 5ebd 02b0 73be 16bb 16be 97ad c0bb
00000240: 4647 113c 192d f23d a21c 8abd 210a 5abe
00000250: 2db8 3d3e 2f79 60bd 4c49 abbd 1ca8 743e
00000260: 155f 393e 9de4 f1bd f397 d43d 592a b9bd
00000270: 0624 313c fafe d0bc 51b9 53be 583d 0a3c
00000280: 6541 433e f324 19bd 0828 c93d f15d ce3d
00000290: 6f78 90bc 795d 31be da74 a3bc 07cd 1dbe
000002a0: bcb3 20be 61f2 c33c d3d3 a13e 02b5 0fbd
000002b0: df56 debc 5de8 25bb 05c0 15be e7c3 213d
000002c0: f249 2a3e 4383 9b3d 4e62 36bd d681 00be
000002d0: 16b5 8c3c 211a 5c3d a295 a53c d6c1 1e3e
000002e0: 3c13 933e b427 68bc bd9a 753e d32c b63d
000002f0: cb2b 9bbe 51e2 debd 408a 2abe 23ca 41bd
00000300: b42f 3b3e 7de9 113e 3aac c33c 575a e23d
00000310: c79b 0ebd 6c17 033e 5c39 993c f929 c93e
00000320: 443b 883e a441 353e ba98 753d 3c3c 973d
00000330: 6d1f 1b3e 884a 7abc 1d69 473c ab1e a63d
00000340: d197 a1bd 3545 67be b997 ecbb f111 b4bd
00000350: f46e 27bd 4f64 3b3e b103 483e 3ce1 403e
00000360: 9507 f7bd 80d8 9fbd a5bd 89bd d4db 02bd
00000370: ab87 cd3d 66ff 783e 6bb4 823e 3dfb 4b3e
00000380: 7188 dabd

bias f4 [5]
-0.09140803 0.016113011 0.020429369 -0.1243384 -0.14198434
00000000: 2234 bbbd 6fff 833c 7e5b a73c 22a5 febd
00000010: 5864 11be

weight f4 [5]
1.2600574 1.2057124 0.99989235 1.0735376 0.8821245
00000000: 9049 a13f c954 9a3f f2f8 7f3f ae69 893f
00000010: e9d2 613f

bias f4 [5]
-0.044030305 0.2929701 0.028965438 -0.09274489 -0.07401582
00000000: 1f59 34bd 2d00 963e ed48 ed3c 08f1 bdbd
00000010: 9b95 97bd

running_mean f4 [5]
0.16760755 -0.74403685 -0.0057374346 -0.03793331 0.7361249
00000000: 50a1 2b3e 3379 3ebf 1701 bcbb f55f 1bbd
00000010: ae72 3c3f

running_var f4 [5]
0.9572932 0.95181304 0.6201176 0.67210853 0.81297565
00000000: 2b11 753f 05aa 733f 07c0 1e3f 4e0f 2c3f
00000010: 2c1f 503f

weight f4 [15, 5, 1, 1]
-0.5188597 0.44316122 0.26254717 -0.016232371 -0.13857447 0.07209101 -0.09716522 -0.10828442
0.4399037 -0.308645 0.13257965 0.19959928 -0.5182278 -0.22999893 0.31628138 -0.2639793
-0.058674585 0.2611137 0.22258759 0.25809884 0.41620392 0.099573 0.33237684 0.0060855905
0.17244698 -0.268739 -0.32697126 -0.2553681 -0.39669538 0.18294324 0.2233359 -0.055492908
0.40611172 0.25895575 0.3829532 0.096641004 -0.26795062 -0.4291517 -0.24930738 -0.0071833255
-0.29854572 -0.41714877 0.13918236 -0.1985112 0.03556863 0.14380157 0.08101897 0.22675714
-0.29654077 -0.08248699 0.29780263 -0.05988682 -0.2454633 -0.08029378 0.2868954 -0.38903263
0.30910763 0.4395013 -0.062660396 0.040872246 -0.40339518 -0.09445907 0.12561145 -0.18994208
0.36906052 0.115815595 -0.60160774 -0.028925626 -0.4881087 0.22413668 -0.046726856 -0.12414858
0.5029354 0.19575664 0.11319283
00000000: fdd3 04bf 07e6 e23e 956c 863e c0f9 84bc
00000010: 77e6 0dbe 74a4 933d 8ffe c6bd 39c4 ddbd
00000020: 0f3b e13e b806 9ebe f6c2 073e c163 4c3e
00000030: 94aa 04bf d784 6bbe a2ef a13e 4b28 87be
00000040: c354 70bd b2b0 853e 00ee 633e 8825 843e
00000050: ae18 d53e eeec cb3d 4c2d aa3e a269 c73b
00000060: f195 303e 2998 89be c768 a7be 9cbf 82be
00000070: a81b cbbe 7955 3b3e 2bb2 643e 884c 63bd
00000080: e0ed cf3e d995 843e 7112 c43e b8eb c53d
00000090: d330 89be c6b9 dbbe 6f4a 7fbe 1a62 ebbb
000000a0: fcda 98be 8694 d5be d285 0e3e 8546 4bbe
000000b0: 69b0 113d b840 133e 46ed a53d 0633 683e
000000c0: 31d4 97be f0ee a8bd 9679 983e e24b 75bd
000000d0: bb5a 7bbe 1171 a4bd f4e3 923e 492f c7be
000000e0: 5b43 9e3e 5006 e13e 1854 80bd a869 273d
000000f0: d089 cebe c273 c1bd 4aa0 003e 2d80 42be
00000100: 80f5 bc3e ba30 ed3d f702 1abf 6ff5 ecbc
00000110: 62e9 f9be 1684 653e a964 3fbd 9c41 febd
00000120: 60c0 003f 6e74 483e a4d1 e73d

weight f4 [15]
1.0095482 0.99341613 1.0737921 0.96378237 1.0261503 0.88106096 1.0753881 1.0814651
0.95748717 1.0426425 0.9927645 1.0162532 1.136719 0.8700867 0.95010716
00000000: e038 813f 8550 7e3f 0572 893f 71ba 763f
00000010: e558 833f 368d 613f 51a6 893f 736d 8a3f
00000020: e11d 753f 4f75 853f d025 7e3f 9614 823f
00000030: 0280 913f 01be 5e3f 393a 733f

bias f4 [15]
0.06610127 0.07988173 0.2561144 -0.14179172 -0.027924296 -0.06804477 0.014136682 0.093563855
-0.0011808171 -0.12269046 -0.15040281 0.10470989 0.078393064 0.032530606 0.16661148
00000000: 1a60 873d 0899 a33d 6d21 833e d931 11be
00000010: 7ec1 e4bc 0e5b 8bbd 8b9d 673c 689e bf3d
00000020: a6c5 9aba 2345 fbbd 3203 1abe 2472 d63d
00000030: 8b8c a03d d03e 053d 339c 2a3e

running_mean f4 [15]
0.03622324 -0.015213668 -0.086550646 0.2141182 0.68840986 -0.7116843 0.7484134 -0.55317265
-0.490406 0.109065264 0.10866174 0.22679228 -0.17154615 -0.49944258 0.3985835
00000000: d25e 143d c042 79bc 7741 b1bd cd41 5b3e
00000010: a13b 303f f130 36bf 0598 3f3f b99c 0dbf
00000020: 7f16 fbbe 9c5d df3d 0c8a de3d 3c3c 683e
00000030: cba9 2fbe f0b6 ffbe 2313 cc3e

running_var f4 [15]
0.9370514 0.3398237 0.30245674 0.16557398 0.6972515 0.81978184 1.0006315 0.4015102
0.36864597 0.10187149 0.24256581 0.59220135 0.42017835 0.5803352 0.40665102
00000000: 9ae2 6f3f 5ffd ad3e 9cdb 9a3e 3a8c 293e
00000010: 137f 323f 39dd 513f b114 803f bf92 cd3e
00000020: 2abf bc3e 00a2 d03d 2c63 783e 829a 173f
00000030: 9e21 d73e d990 143f 9034 d03e
