back/model2.pt (torch, 66209 bytes, 96 tensors)

weight f4 [15, 3, 1, 1]
0.120445885 0.415132 -0.0031289503 -0.7222618 -0.13032609 0.37278867 0.07878678 -0.2991353
0.3777297 0.6266634 0.019698106 -0.4263897 -0.18421398 -0.56897134 -0.4678524 -0.16608943
-0.6224592 0.24516058 0.039871495 0.045778107 -0.40942013 0.39859197 0.17885138 -0.1314064
0.3784013 0.065119095 0.55747163 0.063602306 -0.30369905 0.14547779 -0.12960517 -0.4522152
0.019286145 0.13785164 -0.15127708 1.6716149 -0.19651838 -0.199748 -0.37311745 0.3221252
-0.5142415 1.1574233 -0.28560203 0.12552236 0.9025828
00000000: 55ac f63d 2e8c d43e 130f 4dbb 26e6 38bf
00000010: 3474 05be 28de be3e f75a a13d 4328 99be
00000020: ca65 c13e 036d 203f ec5d a13c c04f dabe
00000030: 97a2 3cbe 1ba8 11bf 5a8a efbe 5913 2abe
00000040: 7c59 1fbf 600b 7b3e 4b50 233d d381 3b3d
00000050: 849f d1be 3f14 cc3e d124 373e 668f 06be
00000060: d1bd c13e 295d 853d 76b6 0e3f ed41 823d
00000070: 717e 9bbe 21f8 143e 38b7 04be c088 e7be
00000080: fafd 9d3c fb28 0d3e 61e8 1abe 7af7 d53f
00000090: 1d3c 49be bd8a 4cbe 4009 bfbe 98ed a43e
000000a0: 55a5 03bf 7226 943f 6e3a 92be ef88 003e
000000b0: ab0f 673f

weight f4 [15]
1.0109688 0.9974316 1.1019996 0.966087 0.9557969 1.0294322 0.87745714 0.90695626
0.90130734 1.1996975 0.9557852 1.0295786 0.8685701 0.97526807 1.0479894
00000000: 6d67 813f ad57 7f3f 530e 8d3f 7a51 773f
00000010: 1baf 743f 6fc4 833f 08a1 603f 492e 683f
00000020: 14bc 663f b08f 993f 57ae 743f 3bc9 833f
00000030: 9c5a 5e3f 2bab 793f 8424 863f

bias f4 [15]
0.008128567 0.031206816 0.023532616 -0.040806834 -0.037941564 0.047284048 -0.03776562 -0.017402444
-0.044551417 0.13103694 -0.13347456 0.037426565 -0.13902457 0.055471003 -0.06207918
00000000: ae2d 053c 70a5 ff3c 79c7 c03c 1125 27bd
00000010: 9d68 1bbd ebac 413d 1fb0 1abd 928f 8ebc
00000020: 8c7b 36bd 8c2e 063e 8ead 08be 994c 193d
00000030: 755c 0ebe 9035 633d bd46 7ebd

running_mean f4 [15]
51.335766 -83.966446 -20.466986 63.931927 -72.43538 -75.42196 8.144696 56.50005
44.008434 -22.581373 -55.68315 -0.10144997 -38.61621 -16.492613 -16.189049
00000000: d357 4d42 d2ee a7c2 63bc a3c1 4bba 7f42
00000010: eade 90c2 0bd8 96c2 ad50 0241 0d00 6242
00000020: a308 3042 a7a6 b4c1 8cbb 5ec2 00c5 cfbd
00000030: 0077 1ac2 dff0 83c1 2c83 81c1

running_var f4 [15]
881.91034 1271.3671 374.92273 802.01044 1685.8333 1956.8909 15.709764 577.2206
346.27505 389.82855 1050.6509 111.21526 322.10486 1124.2224 170.27133
00000000: 437a 5c44 bfeb 9e44 1c76 bb43 ab80 4844
00000010: aaba d244 829c f444 315b 7b41 1e4e 1044
00000020: 3523 ad43 0eea c243 d454 8344 376e de42
00000030: 6c0d a143 1e87 8c44 7645 2a43

weight f4 [5, 5, 3, 3]
-0.015182759 0.085374 0.0180441 0.095399685 -0.06103052 -0.0591583 -0.196254 0.18943249
0.022974053 -0.1720084 -0.08420565 0.020468835 -0.07179845 0.0943128 -0.013932638 -0.07010877
0.11023729 -0.28057897 -0.19688122 -0.0204472 0.0016426384 -0.045103073 0.021913016 -0.006559025
-0.07699439 -0.13358809 -0.13777651 0.020504253 0.057225134 -0.015609052 -0.083175026 -0.081983134
0.04081339 0.098106675 -0.13832512 0.079478465 -0.27408868 -0.0016093913 -0.047054935 -0.11094829
0.05837895 -0.011136415 -0.050850127 0.054755013 -0.01205933 0.12118089 0.2672855 0.037844002
0.19086352 0.18147585 0.0751146 -0.12172481 0.030007571 -0.09018127 0.026699904 -0.15873691
0.00030601516 -0.15290056 0.03418665 -0.11170041 -0.06774742 -0.056057923 0.10565532 0.06670701
-0.049964853 0.029541304 -0.014155606 -0.037942447 -0.057753384 0.1000953 0.024689283 -0.10188124
0.08805243 -0.17065881 -0.017335437 0.055933114 -0.025010787 0.07932128 -0.1117642 0.037940063
0.02673078 -0.040333364 0.031701654 -0.13738936 -0.12303551 -0.036602054 -0.015423424 0.07965415
0.10002527 0.08873575 0.041515782 0.093538046 0.10578826 0.07884582 -0.01596959 -0.031866405
-0.03937981 0.017084902 0.028469019 0.098678015 0.11012222 0.14411762 0.06906751 0.1490379
-0.12859385 0.17665009 0.09850522 -0.120378695 -0.27060857 -0.062251177 -0.010043015 0.064289056
0.061912 0.08357842 -0.06615068 -0.14376858 0.01359898 0.018566966 -0.012543342 0.024510821
-0.015928969 -0.27064824 -0.10554944 -0.20825706 -0.17862223 -0.038795434 0.056983713 -0.17679745
0.07829243 0.012658974 -0.14041705 0.058952212 -0.0897423 0.027660122 0.023945548 -0.051797602
0.00031820155 -0.043666445 -0.123510204 0.13253435 0.13198574 0.0254682 0.109759174 0.08892635
-0.016617432 -0.1497618 0.19801392 0.13568336 -0.009833534 0.013959126 0.019657617 0.16659679
0.05450807 -0.16899587 -0.13725804 -0.032953788 -0.12546858 -0.20691152 -0.012295649 0.1807672
-0.15746436 -0.055081356 0.059227217 0.074175626 -0.14208454 0.049856756 -0.080069765 -0.08624878
-0.08630569 0.18808651 -0.013450882 -0.15177654 -0.13287832 0.014304678 0.12652166 0.047533788
-0.03264217 0.035745867 -0.064348154 0.03402633 0.07934315 -0.22776029 -0.16624995 0.10518168
-0.09154998 0.21739969 0.08513121 0.12151851 0.00071742694 0.06978116 -0.063850954 -0.08712983
0.122647256 0.0636354 0.06028763 0.0333055 0.14306293 0.08207392 -0.058990203 0.0055306344
0.12904176 0.07422576 -0.2099239 -0.062242955 0.12675914 -0.145333 0.06809061 -0.11308779
-0.16475916 0.051026933 0.08704014 -0.20871793 0.0046391347 0.12923242 0.09977003 -0.014291172
-0.17923178 0.07803502 0.19428244 0.16359645 0.021555021 0.037306566 0.12641163 -0.09511258
0.06772284
00000000: 1bc1 78bc 90d8 ae3d 38d1 933c e960 c33d
00000010: 23fb 79bd f94f 72bd cff6 48be 97fa 413e
00000020: 1534 bc3c f822 30be 0374 acbd 42ae a73c
00000030: 110b 93bd 1227 c13d b845 64bc 3095 8fbd
00000040: 17c4 e13d 0ca8 8fbe 3b9b 49be e380 a7bc
00000050: cc4d d73a 00be 38bd ed82 b33c 17ed d6bb
00000060: 3caf 9dbd 51cb 08be 4915 0dbe 89f8 a73c
00000070: e764 6a3d 1cbd 7fbc ab57 aabd c6e6 a7bd
00000080: f12b 273d 27ec c83d 1aa5 0dbe 9bc5 a23d
00000090: 5a55 8cbe 36f2 d2ba adbc 40bd db38 e3bd
000000a0: c41e 6f3d 8375 36bc 3948 50bd cb46 603d
000000b0: 7f94 45bc b02d f83d a5d9 883e 5002 1b3d
000000c0: ba71 433e ced4 393e afd5 993d db4a f9bd
000000d0: 70d2 f53c f5b0 b8bd c2b9 da3c ee8b 22be
000000e0: a970 a039 f791 1cbe 4d07 0c3d 2fc3 e4bd
000000f0: 29bf 8abd fe9c 65bd d161 d83d af9d 883d
00000100: f2a7 4cbd 9b00 f23c eaec 67bc 8a69 1bbd
00000110: d08e 6cbd c4fe cc3d 2e41 ca3c 1da7 d0bd
00000120: d554 b43d 2fc1 2ebe 0c03 8ebc 1f1a 653d
00000130: 6ce3 ccbc 3273 a23d a1e4 e4bd 0a67 1b3d
00000140: 82fa da3c 9934 25bd 98d9 013d ccaf 0cbe
00000150: 0bfa fbbd 09ec 15bd 87b2 7cbc b721 a33d
00000160: 0cda cc3d 17bb b53d 740c 2a3d e090 bf3d
00000170: 84a7 d83d eb79 a13d a8d2 82bc 5986 02bd
00000180: b94c 21bd a3f5 8b3c dc37 e93c b317 ca3d
00000190: c287 e13d 9293 133e 4473 8d3d 649d 183e
000001a0: 1bae 03be c3e3 343e 1bbd c93d 1b89 f6bd
000001b0: 358d 8abe 17fb 7ebd 758b 24bc fba9 833d
000001c0: 7097 7d3d 2a2b ab3d 027a 87bd 1238 13be
000001d0: 42ce 5e3c c019 983c 9782 4dbc ebca c83c
000001e0: 787d 82bc 6892 8abe 4e2a d8bd 5741 55be
000001f0: bfe8 36be f6e7 1ebd c167 693d 640a 35be
00000200: c857 a03d 9667 4f3c 7dc9 0fbe e077 713d
00000210: d0ca b7bd 7b97 e23c 7429 c43c b929 54bd
00000220: 4ad4 a639 96db 32bd ebf2 fcbd 16b7 073e
00000230: 4527 073e b0a2 d03c 6bc9 e03d 051f b63d
00000240: 4821 88bc 285b 19be 29c4 4a3e 94f0 0a3e
00000250: d51c 21bc d1b4 643c 0309 a13c 5998 2a3e
00000260: db43 5f3d 410d 2dbe 5f8d 0cbe 8dfa 06bd
00000270: d67a 00be 9de0 53be b173 49bc 091b 393e
00000280: 563e 21be fd9c 61bd 3d98 723d 64e9 973d
00000290: 9c7e 11be 9936 4c3d 9efb a3bd 33a3 b0bd
000002a0: 0ac1 b0bd c099 403e 1761 5cbc 4f6b 1bbe
000002b0: 4111 08be 2b5e 6a3c e58e 013e cab2 423d
000002c0: ccb3 05bd 426a 123d f7c8 83bd 315f 0b3d
000002d0: a97e a23d fe39 69be 6d3d 2abe 7e69 d73d
000002e0: 8e7e bbbd 069e 5e3e 4659 ae3d b2de f83d
000002f0: b511 3c3a 6de9 8e3d 4ac4 82bd 2071 b2bd
00000300: 7c2e fb3d 4753 823d 29f0 763d 596b 083d
00000310: 177f 123e 5f16 a83d b69f 71bd 533a b53b
00000320: 8623 043e ad03 983d 4af6 56be 78f2 7ebd
00000330: 26cd 013e 2dd2 14be 1773 8b3d 929a e7bd
00000340: a0b6 28be 9e01 513d 1a42 b23d 27ba 55be
00000350: e203 983b 8155 043e 3b54 cc3d 8525 6abc
00000360: 8988 37be d3d0 9f3d faf1 463e d485 273e
00000370: 2894 b03c c5ce 183d 0d72 013e 62ca c2bd
00000380: 46b2 8a3d

bias f4 [5]
0.11849966 -0.090523556 0.068935715 -0.053550597 0.028291851
00000000: f3af f23d 6a64 b9bd 2b2e 8d3d df57 5bbd
00000010: 50c4 e73c

weight f4 [5]
0.93488723 0.87578344 0.8635248 0.8594269 0.8587646
00000000: c554 6f3f 5833 603f f60f 5d3f 6703 5c3f
00000010: ffd7 5b3f

bias f4 [5]
-0.06754046 -0.0913926 -0.079877496 -0.08567802 -0.019205075
00000000: a752 8abd 0b2c bbbd d096 a3bd f577 afbd
00000010: f653 9dbc

running_mean f4 [5]
-0.31939656 -0.015310777 -0.05996391 -0.15068975 0.21937974
00000000: f287 a3be 0eda 7abc b89c 75bd 6a4e 1abe
00000010: 15a5 603e

running_var f4 [5]
0.27048412 0.25894132 0.20916286 0.19812444 0.22138524
00000000: e57c 8a3e f593 843e ca2e 563e 22e1 4a3e
00000010: d0b2 623e

weight f4 [5, 5, 3, 3]
0.05892517 -0.20835704 -0.22144996 -0.088855214 -0.16085573 0.08413062 0.054128174 -0.0962613
-0.14339046 0.008357276 -0.1314973 0.14018968 0.01005145 0.14039429 0.0880563 -0.15248078
0.12198649 0.10570286 -0.08559082 0.10243528 0.06977604 -0.09397761 0.14836277 0.113211215
-0.1109102 0.107351154 -0.036576916 0.12670514 0.03594459 0.0529754 0.17439704 -0.074523315
-0.08016276 -0.042933363 0.075074956 0.08584824 0.09133358 -0.08416578 -0.03973368 0.06728095
-0.1326214 -0.08584536 -0.15357384 -0.080759324 0.06860988 0.014398056 -0.13620669 -0.042262457
0.056890003 0.091802105 0.035023905 -0.07101394 0.24030288 0.16764307 0.10359078 0.095363654
-0.12855735 0.060729984 -0.034997042 0.09918015 0.083151214 0.05314628 -0.03677503 0.15659572
-0.097263545 0.12398975 0.0071754027 -0.0051083 -0.10750018 0.064022005 -0.05818794 0.019560397
-0.057652857 0.085595444 -0.056476 -0.06591772 -0.10755464 0.15313241 0.027366575 -0.027577877
-0.027268177 -0.15078276 -0.1255291 0.1627583 0.1750799 0.21750349 -0.0018147936 0.027344346
0.27281067 0.21847798 -0.17525025 -0.19745295 0.052714337 -0.012776101 -0.07259279 -0.08335453
-0.25028598 -0.09350608 -0.1353763 -0.032155596 -0.05224214 0.10511755 -0.11686431 0.113213405
0.15019538 -0.09622007 -0.0093463175 -0.06305385 0.028125456 0.077596314 -0.05607557 -0.14466715
-0.03317639 -0.070276186 0.078758985 0.06735478 0.106229916 0.041320868 -0.15086608 -0.1005605
0.090204254 -0.1171274 -0.11770595 -0.070758924 -0.004723069 -0.12654406 -0.21657786 -0.079692565
-0.22247398 0.028294938 0.0041370564 0.02267852 -0.27346736 -0.049352694 -0.051649373 -0.07324891
0.14226148 0.0083689485 0.08178593 -0.029639924 -0.014130926 -0.05963581 -0.043546528 -0.067772746
0.00435862 -0.005085265 0.13948978 0.08079915 -0.06842101 -0.05901964 0.08695931 -0.07874984
-0.09338906 1.3895863e-05 0.14198431 0.15046161 0.09724988 0.0467137 -0.10330891 0.04254877
0.07480716 0.10946534 0.12913512 0.09238761 -0.07966102 0.06768752 -0.0587066 0.057772182
-0.16044343 0.00479449 0.052984823 0.24543837 0.095197335 0.12851049 0.11983614 0.2941881
0.20719251 -0.054032296 -0.03818054 -0.052256394 -0.13013698 -0.161969 0.16856374 0.13618194
-0.22109684 0.03082545 -0.18656522 -0.070389844 0.025052052 0.21093985 0.07198692 -0.010196661
-0.00878354 0.13820983 0.045240153 0.0021907967 -0.02489476 -0.071672216 0.007962662 0.14379679
0.06264848 0.1631109 0.15766507 0.12945953 -0.057122495 -0.10015632 0.020367948 0.10742845
0.13472708 0.12477043 -0.03106196 -0.021102468 -0.043178074 -0.05049363 0.085932665 -0.020623192
-0.18522486 -0.015514261 0.115534045 -0.009002459 -0.05611842 -0.05007561 -0.03378481 -0.052436233
0.084956154
00000000: 855b 713d 8c5b 55be c7c3 62be b9f9 b5bd
00000010: 5db7 24be ad4c ac3d 81b5 5d3d a524 c5bd
00000020: f3d4 12be f5ec 083c 3aa7 06be e28d 0f3e
00000030: d6ae 243c 85c3 0f3e dd56 b43d ec23 1cbe
00000040: 0ed4 f93d be7a d83d 3d4a afbd 97c9 d13d
00000050: bee6 8e3d 5577 c0bd 69ec 173e 48db e73d
00000060: e324 e3bd ecda db3d add1 15bd febe 013e
00000070: a23a 133d bcfc 583d 2395 323e ae9f 98bd
00000080: 602c a4bd e5da 2fbd e6c0 993d 34d1 af3d
00000090: 1a0d bb3d 1c5f acbd c9bf 22bd 98ca 893d
000000a0: e7cd 07be b1cf afbd 7642 1dbe 2565 a5bd
000000b0: 5683 8c3d d3e5 6b3c c479 0bbe 661b 2dbd
000000c0: 7e05 693d be02 bc3d 3a75 0f3d c26f 91bd
000000d0: f511 763e a0aa 2b3e 6727 d43d 054e c33d
000000e0: 8aa4 03be 01c0 783d 0f59 0fbd f61e cb3d
000000f0: 2f4b aa3d eaaf 593d 6aa1 16bd a15a 203e
00000100: 1c32 c7bd 57ee fd3d a41f eb3b 8763 a7bb
00000110: 0e29 dcbd f81d 833d 7a56 6ebd 203d a03c
00000120: 6725 6cbd aa4c af3d 6153 67bd dfff 86bd
00000130: 9b45 dcbd bece 1c3e de2f e03c 00eb e1bc
00000140: 8361 dfbc cc66 1abe b38a 00be 1daa 263e
00000150: 2548 333e 3cb9 5e3e 5ede edba 4001 e03c
00000160: d7ad 8b3e b1b8 5f3e cd74 33be 1b31 4abe
00000170: fdea 573d da52 51bc 87ab 94bd c8b5 aabd
00000180: 7c25 80be 1e80 bfbd 16a0 0abe 96b5 03bd
00000190: dbfb 55bd df47 d73d 8e56 efbd 6edc e73d
000001a0: d1cc 193e 070f c5bd 4c21 19bc 6022 81bd
000001b0: 5b67 e63c d1ea 9e3d 7faf 65bd a023 14be
000001c0: f7e3 07bd f6ec 8fbd 644c a13d 4ef1 893d
000001d0: 128f d93d 1240 293d a37c 1abe aaf2 cdbd
000001e0: 02bd b83d 7ee0 efbd d10f f1bd 0eea 90bd
000001f0: f9c3 9abb c494 01be 96c6 5dbe db35 a3bd
00000200: 38d0 63be c9ca e73c 2590 873b 4ec8 b93c
00000210: ea03 8cbe 0d26 4abd 4b8e 53bd 8603 96bd
00000220: feac 113e ea1d 093c 627f a73d 6dcf f2bc
00000230: 6685 67bc ae44 74bd d85d 32bd 70cc 8abd
00000240: c1d2 8e3b 4ba2 a6bb 69d6 0e3e 067a a53d
00000250: 5120 8cbd 94be 71bd b917 b23d 9947 a1bd
00000260: c342 bfbd 4722 6937 5664 113e 9c12 1a3e
00000270: f22a c73d dd56 3f3d 9f93 d3bd 9e47 2e3d
00000280: 7f34 993d 5d2f e03d ff3b 043e b735 bd3d
00000290: 5125 a3bd c19f 8a3d 5576 70bd 86a2 6c3d
000002a0: 484b 24be 191b 9d3b 9d06 593d 3254 7b3e
000002b0: d2f6 c23d 4198 033e a66c f53d d39f 963e
000002c0: 462a 543e f850 5dbd 3363 1cbd cd0a 56bd
000002d0: a142 05be 34db 25be f99b 2c3e 4773 0b3e
000002e0: 3667 62be a785 fc3c f40a 3fbe 8d28 90bd
000002f0: f639 cd3c 9e00 583e e16d 933d e50f 27bc
00000300: d6e8 0fbc e186 0d3e bd4d 393d 7893 0f3b
00000310: 19f0 cbbc e2c8 92bd d375 023c 773f 133e
00000320: d94d 803d 8b06 273e f472 213e 0a91 043e
00000330: 47f9 69bd c21e cdbd afda a63c 7203 dc3d
00000340: e5f5 093e a487 ff3d a775 febc 15df acbc
00000350: 7edb 30bd 69d2 4ebd 77fd af3d f8f1 a8bc
00000360: 96ab 3dbe 872f 7ebc 1d9d ec3d 0d7f 13bc
00000370: 6edc 65bd 151c 4dbd f161 0abd 60c7 56bd
00000380: 7efd ad3d

bias f4 [5]
0.0015848662 0.088926695 0.08012906 0.16257736 -0.01772661
00000000: 49bb cf3a 331f b63d b41a a43d ae7a 263e
00000010: 6537 91bc

weight f4 [5]
1.0228312 1.1559021 1.1316034 1.0596575 1.0391809
00000000: 22ec 823f 9af4 933f 61d8 903f dba2 873f
00000010: e103 853f

bias f4 [5]
4.5473906e-05 0.0134860575 0.31132695 0.005589181 0.04881124
00000000: 3cbb 3e38 a0f4 5c3c 3f66 9f3e 7325 b73b
00000010: 4bee 473d

running_mean f4 [5]
-0.157782 0.6287286 -0.6143472 0.74475366 0.062342066
00000000: 9b91 21be 5cf4 203f dc45 1dbf 2da8 3e3f
00000010: 655a 7f3d

running_var f4 [5]
0.33915558 0.27746853 0.29058406 0.21628529 0.31391126
00000000: cda5 ad3e 5b10 8e3e 6fc7 943e e479 5d3e
00000010: fab8 a03e

weight f4 [5, 5, 3, 3]
0.22033265 0.1844562 0.07752584 0.189148 -0.084028944 0.026721165 -0.04941371 0.018360486
0.07628595 0.12930855 -0.05762321 -0.044878867 -0.24374178 -0.1844352 -0.13233101 -0.06053766
-0.13864303 0.047792062 0.1137517 0.14459848 0.008315552 0.08289783 0.07021493 0.08900214
-0.052597817 -0.06075039 0.12880976 0.00791802 -0.12302663 -0.13519642 0.018720469 0.0011804386
-0.011731857 -0.097301945 -0.034971323 -0.03800643 0.020113356 -0.17727737 0.055286694 -0.013992259
-0.0727436 -0.03408762 0.05064138 -0.13632864 -0.05511237 0.08787843 -0.018184887 -0.08981062
-0.06078419 0.1437036 -0.146308 0.034940653 0.031503636 0.037095334 0.061298497 0.09638772
-0.0255705 -0.074655615 0.14838031 0.019376976 -0.031799294 -0.065978795 0.1238741 0.06302064
0.018161263 0.10112372 0.12657274 -0.040442366 -0.049092047 -0.105367295 0.09738087 0.088526785
-0.06315292 -0.002315442 -0.12559758 0.08148713 -0.013713374 0.024373606 -0.16152614 0.19475806
0.11722914 0.12143214 0.27995607 0.21121985 0.13169242 0.17051573 0.07350519 -0.103005044
0.14695856 0.114835486 -0.24385731 0.1703772 0.11576258 -0.007087952 -0.024631133 -0.10640361
0.038800962 0.05645314 -0.012062269 -0.08065615 0.023647191 -0.21730949 -0.059974816 0.07446791
-0.21879436 -0.0041613653 -0.07385064 -0.055410575 -0.015423598 0.1392904 -0.10603886 -0.006362086
0.02855563 0.07853572 -0.03925167 -0.120017335 -0.10357578 -0.06530343 -0.040994186 -0.09916143
-0.11601128 0.06404748 -0.08538348 -0.0859201 -0.040066794 -0.12717612 0.17281556 0.11267331
0.04996991 0.21090648 0.025381727 -0.15251988 -0.11044673 -0.079834275 -0.21229203 0.1320843
0.14799872 0.1094733 0.16168433 -0.07937042 -0.029880755 0.022118483 -0.037052713 0.005921383
0.1829101 0.18615894 -0.069542326 0.21676421 -0.008195078 0.12579952 0.12962738 -0.09631889
-0.031699892 0.06709988 0.14121953 0.0848598 -0.04340564 0.062731706 -0.0140057085 0.13404693
-0.0014300193 0.06330404 0.14834768 0.1076416 0.113380946 0.078565486 -0.024168292 -0.06510206
0.13619873 0.08728292 0.028436918 -0.031109108 -0.051365755 -0.1317259 0.09443569 0.06093694
-0.07904659 0.0005703833 0.04235708 0.15327677 0.108570464 0.087713666 0.09142561 -0.11014767
-0.0587535 0.051723983 -0.00046094228 -0.06813894 -0.10323596 -0.10683064 -0.005698461 -0.2597757
-0.14727215 -0.08175572 0.10263077 0.0468996 -0.030007267 0.05320767 -0.0034896336 -0.044859465
-0.14059411 -0.015123972 -0.006476802 -0.20522541 -0.010272644 0.06457455 -0.0950187 0.08040927
0.0067292526 -0.2370342 0.016227378 -0.08705735 -0.16546164 -0.19404547 0.01801893 -0.168885
0.09608813 -0.23704715 0.029294169 0.01734487 -0.08255518 -0.07336493 0.050817657 -0.12905957
0.0272761
00000000: e29e 613e 16e2 3c3e dec5 9e3d 03b0 413e
00000010: 5e17 acbd 58e6 da3c 0866 4abd bb68 963c
00000020: cf3b 9c3d 7669 043e 5106 6cbd e7d2 37bd
00000030: 7297 79be 95dc 3cbe c881 07be 56f6 77bd
00000040: 70f8 0dbe 9cc1 433d a7f6 e83d a011 143e
00000050: f43d 083c 56c6 a93d d8cc 8f3d c146 b63d
00000060: cf70 57bd 67d5 78bd b5e6 033e 95ba 013c
00000070: 63f5 fbbd ee70 0abe ab5b 993c f2b8 9a3a
00000080: fa36 40bc 3e46 c7bd 173e 0fbd a1ac 1bbd
00000090: c4c4 a43c 3388 35be 4d74 623d ca3f 65bc
000000a0: 99fa 94bd 769f 0bbd 566d 4f3d bc99 0bbe
000000b0: 82bd 61bd 9bf9 b33d 79f8 94bc a1ee b7bd
000000c0: d8f8 78bd 0927 133e c4d1 15be ee1d 0f3d
000000d0: f509 013d 47f1 173d 2214 7b3d ed66 c53d
000000e0: 3a79 d1bc 0be5 98bd 02f1 173e 77bc 9e3c
000000f0: fa3f 02bd e41f 87bd b4b1 fd3d f710 813d
00000100: eec6 943c f419 cf3d 499c 013e e5a6 25bd
00000110: be14 49bd cfca d7bd 9f6f c73d 884d b53d
00000120: 5156 81bd acbe 17bb a79c 00be b9e2 a63d
00000130: 0fae 60bc 28ab c73c 1c67 25be a86e 473e
00000140: d515 f03d 6ab1 f83d 6756 8f3e 044a 583e
00000150: 61da 063e ad9b 2e3e e489 963d 4ff4 d2bd
00000160: 4e7c 163e de2e eb3d bbb5 79be 5c77 2e3e
00000170: ee14 ed3d 0d42 e8bb 3bc7 c9bc 23ea d9bd
00000180: c2ed 1e3d 683b 673d d3a0 45bc 0d2f a5bd
00000190: c1b7 c13c 6186 5ebe 27a8 75bd a282 983d
000001a0: a10b 60be 105c 88bb 013f 97bd 33f6 62bd
000001b0: 42b3 7cbc 25a2 0e3e e72a d9bd 0c79 d0bb
000001c0: 7fed e93c 56d7 a03d 5cc6 20bd a6cb f5bd
000001d0: 8a1f d4bd cebd 85bd 85e9 27bd 2615 cbbd
000001e0: 5297 edbd 532b 833d 89dd aebd e1f6 afbd
000001f0: 141d 24bd 753a 02be 90f6 303e 44c1 e63d
00000200: 40ad 4c3d def7 573e 57ed cf3c 2c2e 1cbe
00000210: e531 e2bd 2780 a3bd 1563 59be 1b41 073e
00000220: fa8c 173e 8a33 e03d 9490 253e f58c a2bd
00000230: 7cc8 f4bc d231 b53c 96c4 17bd 2908 c23b
00000240: c94c 3b3e 73a0 3e3e 356c 8ebd 70f7 5d3e
00000250: a644 06bc 97d1 003e 0abd 043e d742 c5bd
00000260: bfd7 01bd a96b 893d da9b 103e faca ad3d
00000270: 1dca 31bd 7b79 803d 3378 65bc 9943 093e
00000280: 7c6f bbba 8ca5 813d 74e8 173e 3373 dc3d
00000290: 4534 e83d f1e6 a03d 95fc c5bc 3b54 85bd
000002a0: ae77 0b3e 63c1 b23d 8af4 e83c 87d8 febc
000002b0: e664 52bd 28e3 06be 8067 c13d 0399 793d
000002c0: 2ee3 a1bd c685 153a 9e7e 2d3d 96f4 1c3e
000002d0: 315a de3d 39a3 b33d 5a3d bb3d 1a95 e1bd
000002e0: 83a7 70bd 87dc 533d a0aa f1b9 6e8c 8bbd
000002f0: 606d d3bd 06ca dabd 28ba babb 5201 85be
00000300: 83ce 16be 8b6f a7bd 1530 d23d cc19 403d
00000310: cdd1 f5bc 49f0 593d 56b2 64bb 8fbe 37bd
00000320: e7f7 0fbe 89ca 77bc 5a3b d4bb 9c26 52be
00000330: 984e 28bc a93f 843d 2a99 c2bd 9ead a43d
00000340: 1081 dc3b 18b9 72be 47ef 843c 204b b2bd
00000350: c76e 29be dbb3 46be 6f9c 933c 30f0 2cbe
00000360: dac9 c43d 7dbc 72be 53fa ef3c d416 8e3c
00000370: b112 a9bd 5a40 96bd 2d26 503d 3128 04be
00000380: 2172 df3c

bias f4 [5]
0.05236537 0.164119 0.11446716 -0.0171108 -0.031395186
00000000: 127d 563d d00e 283e c26d ea3d f32b 8cbc
00000010: 3d98 00bd

weight f4 [5]
1.0404545 1.0247676 1.0863382 1.0503442 1.0713205
00000000: 9d2d 853f 962b 833f 210d 8b3f ae71 863f
00000010: 0821 893f

bias f4 [5]
0.06715532 0.021891175 0.09854681 0.041879818 0.09668771
00000000: ba88 893d 1f55 b33c e9d2 c93d 2c8a 2b3d
00000010: 3504 c63d

running_mean f4 [5]
-0.20951602 0.703962 -0.19468836 0.54199535 -0.57277006
00000000: 5e8b 56be db36 343f 635c 47be 35c0 0a3f
00000010: 0fa1 12bf

running_var f4 [5]
0.15427896 0.14557172 0.2061531 0.30767328 0.1653242
00000000: 4efb 1d3e c110 153e cc19 533e 5a87 9d3e
00000010: bf4a 293e

weight f4 [15, 5, 1, 1]
-0.32026267 0.45958194 0.1705521 0.36196166 -0.33596468 0.4687261 0.35162565 0.06975514
-0.28228483 0.04512062 -0.11487554 0.20560093 -0.46716237 0.13415775 0.41069844 0.28492793
-0.11235027 0.061849914 0.07021697 0.27187592 0.30249855 -0.26123765 -0.05836682 -0.2485719
0.17621025 0.08794547 0.19478977 0.32393357 -0.5322258 0.22144334 -0.12791842 0.55976146
0.21736296 0.12303341 0.030455496 -0.2981313 -0.32730883 0.17553589 -0.16304947 -0.37558296
0.05653639 0.24144419 0.20556842 -0.4340933 -0.24937731 -0.083172254 0.20885468 0.13661729
-0.4715838 0.36166483 -0.17793663 -0.014539921 0.4930611 0.033535607 0.3743468 -0.18861341
0.14753795 -0.44274032 -0.07362243 -0.40363848 0.3166441 -0.13194199 -0.44811937 0.32699788
-0.16212499 0.1191788 -0.04800049 0.30893794 0.11100232 -0.062228918 0.30600736 -0.24055922
0.1648457 -0.10504504 -0.3431947
00000000: 78f9 a3be 534e eb3e 36a5 2e3e 0a53 b93e
00000010: 9003 acbe defc ef3e 4708 b43e c8db 8e3d
00000020: a387 90be 66d0 383d de43 ebbd 0d89 523e
00000030: e82f efbe a660 093e 1147 d23e 13e2 913e
00000040: e617 e6bd 5656 7d3d eacd 8f3d 5233 8b3e
00000050: 17e1 9a3e f1c0 85be 0c12 6fbd a289 7ebe
00000060: 7670 343e c11c b43d f876 473e 9fda a53e
00000070: f33f 08bf 0bc2 623e 0cfd 02be 874c 0f3f
00000080: 6594 5e3e f1f8 fb3d ce7d f93c aaa4 98be
00000090: 0695 a7be aebf 333e 71f6 26be 694c c0be
000000a0: b492 673d 253d 773e 8780 523e 7a41 debe
000000b0: c45c 7fbe 3756 aabd 00de 553e 67e5 0b3e
000000c0: 6f73 f1be 222c b93e 0535 36be d938 6ebc
000000d0: 8172 fc3e a25c 093d 62aa bf3e e023 41be
000000e0: 3014 173e dcae e2be 5bc7 96bd b4a9 cebe
000000f0: 2d1f a23e cd1b 07be e76f e5be 446c a73e
00000100: 1804 26be 0414 f43d 299c 44bd 1d2d 9e3e
00000110: 2f55 e33d c0e3 7ebd ffac 9c3e 2855 76be
00000120: 50cd 283e db21 d7bd 37b7 afbe

weight f4 [15]
1.0241097 0.9684312 0.9553418 0.963036 1.156074 1.0413873 0.968677 1.0692297
0.95127624 0.96717864 0.9949098 0.9575198 1.0597466 0.8938164 1.0242028
00000000: 0716 833f 1beb 773f 4891 743f 8789 763f
00000010: 3cfa 933f 2e4c 853f 37fb 773f 85dc 883f
00000020: d786 733f 0599 773f 69b2 7e3f 0520 753f
00000030: c7a5 873f 27d1 643f 1419 833f

bias f4 [15]
0.00039919856 -0.07860097 -0.020952571 0.07618442 0.018494485 0.1748802 0.05341199 0.0914287
0.10885095 -0.016102113 -0.11373978 0.016621973 0.054912273 -0.03019645 0.05864107
00000000: 864b d139 8cf9 a0bd baa4 abbc 9406 9c3d
00000010: bf81 973c cc13 333e 88c6 5a3d f83e bb3d
00000020: 3fed de3d 94e8 83bc 67f0 e8bd ce2a 883c
00000030: b1eb 603d 8c5e f7bc 9e31 703d

running_mean f4 [15]
0.22474828 0.4698674 0.085988946 0.4125693 -0.051904745 0.2534905 0.5739869 -0.67520434
-0.10896616 0.13359281 0.5386562 -0.7139358 -0.1167486 0.3212275 -0.13691632
00000000: 6a24 663e 7692 f03e f91a b03d 493c d33e
00000010: 129a 54bd 82c9 813e cef0 123f 31da 2cbf
00000020: a629 dfbd 8ecc 083e 5fe5 093f 7fc4 36bf
00000030: e419 efbd ee77 a43e cb33 0cbe

running_var f4 [15]
0.34510332 0.3484124 0.21215133 0.16074775 0.14985557 0.407807 0.34186384 0.35673055
0.23466201 0.27102828 0.2967402 0.4373156 0.2549028 0.08543825 0.13395348
00000000: 62b1 b03e 1c63 b23e 333e 593e 0f9b 243e
00000010: bd73 193e 14cc d03e c708 af3e 63a5 b63e
00000020: 3d4b 703e 38c4 8a3e 55ee 973e d5e7 df3e
00000030: 9f82 823e 40fa ae3d 1a2b 093e

weight f4 [5, 5, 3, 3]
-0.059546307 0.1670519 0.08505124 0.09350928 -0.0022316044 -0.0015740807 -0.0029645714 -0.17487198
0.1928676 0.1124874 -0.118251935 -0.061780684 -0.08240568 -0.18069848 -0.051097445 0.15398869
0.030105239 0.024247622 0.023710089 -0.25893512 0.11297032 0.015349609 -0.0035084211 0.017167538
-0.024098786 0.043219164 -0.081790015 -0.056386814 -0.0052227424 -0.0038149243 0.06495618 -0.20790152
-0.12438533 0.09132132 0.21542901 -0.03569822 -0.054279394 -0.054144535 0.055057943 -0.09407208
-0.16706587 0.06638081 -0.076304756 -0.06650161 -0.17225572 -0.157875 0.009714184 0.042942908
-0.12526612 -0.18469909 0.07676653 -0.12206921 -0.051688828 0.0882598 0.04396334 0.095545426
-0.073203325 0.054406755 0.084319495 0.18122591 0.13597791 0.09639368 0.06781246 -0.1041302
0.03960143 0.039139997 0.1229287 0.1277169 -0.17269297 0.07167879 -0.009218516 0.04558416
0.053794123 0.019264797 0.019991113 0.04683274 -0.016364722 -0.13711771 0.16239604 0.109905355
0.14228995 0.0881871 0.023394585 0.21930948 -0.028969439 -0.17427452 0.058164354 0.18962188
0.016724251 -0.08690203 0.10691748 -0.064594686 0.066089325 0.042562447 0.1218998 0.0023878962
-0.104030274 -0.14162688 -0.08496263 0.006553203 -0.1794923 -0.013670056 0.065721884 -0.013148156
0.070015065 -0.0781847 0.047814306 0.19428527 -0.024247434 -0.14625643 0.0035170033 -0.18757337
-0.055218857 0.011495755 -0.092333205 -0.010530173 0.14742976 -0.13417368 -0.25817138 -0.05969487
-0.082842395 -0.08607002 -0.012194453 0.012893406 -0.12848994 0.068602115 0.15535341 -0.00068575965
-0.017277077 -0.22257382 0.12946291 -0.08791501 0.13415252 0.091661364 0.043257337 0.09712179
-0.052041855 -0.06797455 -0.02107365 0.16286542 0.23245405 0.10684607 0.10967693 0.040534355
0.15616028 -0.052769367 0.10219832 -0.012747555 0.09605299 -0.0027385876 0.026344933 0.10393335
0.19744965 0.1890668 -0.076974034 0.029483594 -0.1062649 0.06596427 0.069246955 0.027686412
0.0464076 -0.016259098 0.03587825 0.030770352 -0.10472983 -0.15724503 0.08998828 -0.11125107
0.06448573 -0.075045 -0.08373325 0.14730825 -0.11345425 0.0059184767 -0.32705784 -0.08398658
-0.1573976 0.11330635 0.014130113 0.11862148 0.022445938 0.14791016 -0.14721595 0.075201504
0.090378895 -0.047026053 0.14620289 0.17399456 -0.040679254 0.06280585 0.044301912 0.06142725
-0.09366761 -0.0010050719 -0.014921096 0.015608591 -0.14943384 -0.1833259 -0.12210075 0.17900093
0.14335054 0.1131747 -0.095518164 -0.060935967 -0.13611071 -0.102291994 0.12398188 0.06868115
-0.11225726 -0.048268534 0.06733315 -0.13993028 -0.021593971 0.011890122 -0.1502576 -0.07483322
-0.14944445 -0.13205135 -0.24191074 0.07460648 -0.054893453 0.12518744 -0.11283097 -0.110501595
-0.007406669
00000000: d4e6 73bd a70f 2b3e 582f ae3d cb81 bf3d
00000010: 1c40 12bb 6251 ceba 4149 42bb a411 33be
00000020: 167f 453e cb5f e63d 122e f2bd be0d 7dbd
00000030: 4fc4 a8bd 0609 39be 8e4b 51bd 36af 1d3e
00000040: 439f f63c f3a2 c63c a93b c23c 2593 84be
00000050: fc5c e73d ed7c 7b3c 8aed 65bb f0a2 8c3c
00000060: d16a c5bc 9406 313d 8681 a7bd dcf5 66bd
00000070: 8a23 abbb cf03 7abb bf07 853d 23e4 54be
00000080: bcbd febd ac06 bb3d 6c99 5c3e 4c38 12bd
00000090: 1254 5ebd a9c6 5dbd 7084 613d dda8 c0bd
000000a0: 5113 2bbe aaf2 873d ab45 9cbd ff31 88bd
000000b0: ce63 30be fca9 21be 3e28 1f3c e7e4 2f3d
000000c0: c345 00be c221 3dbe c537 9d3d 6cff f9bd
000000d0: aab7 53bd 8ec1 b43d e712 343d 52ad c33d
000000e0: a0eb 95bd 9ed9 5e3d b3af ac3d 4993 393e
000000f0: cb3d 0b3e 0d6a c53d 42e1 8a3d 3742 d5bd
00000100: 1c35 223d 4351 203d 0bc2 fb3d 38c8 023e
00000110: 6dd6 30be 54cc 923d 4209 17bc 75b6 3a3d
00000120: 3a57 5c3d 35d1 9d3c 67c4 a33c b0d3 3f3d
00000130: 4f0f 86bc 9668 0cbe 264b 263e 0f16 e13d
00000140: 75b4 113e 709b b43d 00a6 bf3c aa92 603e
00000150: 5151 edbc 0575 32be bf3d 6e3d 3d2c 423e
00000160: 4c01 893c b1f9 b1bd 8df7 da3d 384a 84bd
00000170: d759 873d f655 2e3d 9aa6 f93d 407e 1c3b
00000180: d30d d5bd a306 11be e300 aebd 40bc d63b
00000190: d4cc 37be 5ff8 5fbc 3299 863d 5d6b 57bc
000001a0: 0f64 8f3d 4d1f a0bd efd8 433d b8f2 463e
000001b0: 8ea2 c6bc 3fc4 15be 867d 663b 3c13 40be
000001c0: 2b2d 62bd b158 3c3c 3119 bdbd bf86 2cbc
000001d0: d4f7 163e d364 09be 0a2f 84be 9c82 74bd
000001e0: 46a9 a9bd 7b45 b0bd 3ecb 47bc dd3e 533c
000001f0: de92 03be 447f 8c3d f714 1f3e 8dc4 33ba
00000200: a888 8dbc 64ea 63be ed91 043e c90c b4bd
00000210: 475f 093e f4b8 bb3d 9b2e 313d cae7 c63d
00000220: d729 55bd 3e36 8bbd a6a2 acbc 31c6 263e
00000230: 6f08 6e3e 1dd2 da3d 4c9e e03d 5a07 263d
00000240: 7be8 1f3e b124 58bd 5a4d d13d 1fdb 50bc
00000250: 6eb7 c43d e079 33bb 54d1 d73c 02db d43d
00000260: 3e30 4a3e ba9a 413e 90a4 9dbd 9487 f13c
00000270: 69a1 d9bd 4618 873d 59d1 8d3d 9dce e23c
00000280: e515 3e3d cd31 85bc 12f5 123d 1b12 fc3c
00000290: 987c d6bd d704 21be c64b b83d 9ad7 e3bd
000002a0: 1811 843d 31b1 99bd 577c abbd f9d7 163e
000002b0: b45a e8bd c8ef c13b 2074 a7be 2801 acbd
000002c0: d62c 21be 290d e83d fd81 673c d2ef f23d
000002d0: 8be0 b73c c375 173e c7bf 16be 3f03 9a3d
000002e0: 9218 b93d 649e 40bd 36b6 153e a12b 323e
000002f0: 4a9f 26bd 5aa0 803d ec75 353d 249b 7b3d
00000300: ced4 bfbd 9ebc 83ba 9d77 74bc 2dbb 7f3c
00000310: 2f05 19be c9b9 3bbe f50f fabd 054c 373e
00000320: 7cca 123e 23c8 e73d 079f c3bd fe97 79bd
00000330: 9b60 0bbe 777e d1bd 36ea fd3d b4a8 8c3d
00000340: 22e7 e5bd 3ab5 45bd f6e5 893d e249 0fbe
00000350: d7e5 b0bc c9ce 423c 21dd 19be 2942 99bd
00000360: f707 19be 7838 07be 73b7 77be 48cb 983d
00000370: f5d7 60bd 2331 003e ec13 e7bd a94e e2bd
00000380: a5b3 f2bb

bias f4 [5]
-0.14888988 0.11050032 -0.02176075 0.050500654 -0.021176187
00000000: 9776 18be fe4d e23d 9a43 b2bc c6d9 4e3d
00000010: af79 adbc

weight f4 [5]
0.93020445 1.0042406 0.97892857 0.93002635 0.79231685
00000000: e121 6e3f f58a 803f 109b 7a3f 3516 6e3f
00000010: 47d5 4a3f

bias f4 [5]
-0.082317784 -0.04933416 0.04013509 0.056758083 -0.04559907
00000000: 3a96 a8bd 9e12 4abd b164 243d 2a7b 683d
00000010: 17c6 3abd

running_mean f4 [5]
-0.3941129 0.44893867 -0.32590014 0.29415846 -0.2788346
00000000: 2bc9 c9be 4adb e53e 62dc a6be f09b 963e
00000010: 69c3 8ebe

running_var f4 [5]
0.23970975 0.40288797 0.27682474 0.3574663 0.38607502
00000000: 7976 753e 5547 ce3e f9bb 8d3e d305 b73e
00000010: a0ab c53e

weight f4 [5, 5, 3, 3]
0.08749478 -0.057259955 -0.037450522 0.01676292 0.027767012 0.13458638 0.17237695 -0.072666615
0.22006889 0.057636745 0.10305805 0.0089981835 -0.1682985 -0.018866884 0.1419882 0.04795619
0.086741455 -0.0025169177 0.13100521 -0.21245427 -0.18429013 0.10787256 0.108785115 -0.15915754
0.047427565 -0.04304801 -0.1310058 0.13081281 0.048479106 -0.016344288 -0.11135559 -0.03490967
0.1293931 0.12223276 0.111814074 -0.11497935 0.093646824 -0.18106079 -0.026397418 -0.027826969
-0.020273753 0.047171313 0.24029738 0.13567662 0.2150433 0.012245883 -0.13913691 -0.015068417
-0.085808806 0.19688717 -0.02503037 0.1394164 0.040280033 -0.07574453 -0.13470045 -0.15760042
0.09860737 0.08479906 -0.11110628 0.17931741 0.013120195 -0.05284418 0.14684296 0.16811332
-0.12218842 -0.14285608 -0.057235666 0.06721749 0.12881416 0.025892414 -0.18564717 -0.24120125
0.083667636 -0.0494787 0.14818689 0.08847544 -0.090765044 0.002569122 -0.2301178 0.07770605
-0.10095904 0.12327496 0.0012286638 0.11712181 0.09201379 0.04476591 0.091513634 0.019941328
0.08309028 -0.008774475 -0.17124963 -0.03510443 0.06713815 0.040833283 -0.08737373 0.19958821
0.047772624 0.18742657 0.13240848 -0.09773621 0.046658438 -0.044435818 0.07442775 0.028551145
0.01909282 0.086432464 0.06245069 0.11899946 0.0036986873 -0.038430132 -0.12574153 -0.012322293
-0.03517245 0.16476837 0.045599237 -0.040808756 -0.014566842 -0.05905471 -0.003974143 -0.05586832
0.024863904 0.04035712 0.0044821417 0.21545857 0.083760224 0.13475166 0.036097225 -0.046250977
-0.061598882 -0.10971815 0.14877082 0.06799458 0.15963605 0.1515877 0.10892597 0.039418973
0.041478604 -0.092945606 0.20847176 0.24221036 0.041788965 0.15615332 0.15260266 0.055599406
-0.063898005 0.15973118 -0.09955538 0.12678175 0.108951 0.16665094 0.039580785 0.08748519
-0.000947711 0.07850028 0.103768565 0.041631985 -0.0929762 -0.079584114 0.0016793155 -0.13178918
-0.3268848 -0.16653797 -0.075575 0.013167024 0.009072588 0.024275474 -0.056096032 -0.008694087
0.16879387 -0.09745567 -0.0006390043 -0.077796824 0.027396493 0.06813792 0.038742136 -0.070878595
0.04652373 -0.086913325 -0.030245546 0.2211877 -0.012424393 -0.018721258 -0.124428645 -0.003833332
-0.07640783 -0.12304024 -0.15789926 0.09219101 -0.15061897 -0.08372304 0.15371346 -0.006609074
-0.118631914 0.12666294 0.021469075 -0.08644514 -0.10176385 0.07500017 0.12467419 0.086770795
-0.116980776 -0.07714766 -0.19084978 -0.087393016 0.12821211 -0.07837376 -0.16184504 -0.04214202
0.087059215 -0.25303578 0.12207527 0.039000716 -0.06644436 -0.18869801 0.048637096 -0.023789117
0.12095248 -0.0807511 -0.1477531 0.11041 -0.06299327 0.07027491 -0.09255401 -0.0410099
-0.10015647
00000000: 7730 b33d 6a89 6abd b865 19bd 6452 893c
00000010: a577 e33c 03d1 093e 9583 303e 3cd2 94bd
00000020: bd59 613e 8214 6c3d 1910 d33d 1e6d 133c
00000030: 7156 2cbe b98e 9abc 5b65 113e b66d 443d
00000040: 81a5 b13d dff2 24bb 3b26 063e 9d8d 59be
00000050: 8db6 3cbe 4aec dc3d bbca de3d 32fa 22be
00000060: 6843 423d 1c53 30bd 6226 06be cbf3 053e
00000070: 0792 463d 75e4 85bc 660e e4bd 71fd 0ebd
00000080: a07f 043e 2b55 fa3d c7fe e43d 4b7a ebbd
00000090: e8c9 bf3d 0068 39be 663f d8bc 62f5 e3bc
000000a0: 2415 a6bc b536 413d 8410 763e d0ee 0a3e
000000b0: 5034 5c3e f5a2 483c e879 0ebe 86e1 76bc
000000c0: 87bc afbd ca9c 493e 7e0c cdbc 2cc3 0e3e
000000d0: adfc 243d f31f 9bbd eaee 09be 0162 21be
000000e0: a9f2 c93d 21ab ad3d b08b e3bd fc9e 373e
000000f0: 16f6 563c 2473 58bd 005e 163e e625 2c3e
00000100: ec3d fabd dd48 12be f26f 6abd 53a9 893d
00000110: dce7 033e 541c d43c 4b1a 3ebe 76fd 76be
00000120: f059 ab3d 2daa 4abd 4ebe 173e 9d32 b53d
00000130: 06e3 b9bd b75e 283b 00a4 6bbe 5924 9f3d
00000140: 9dc3 cebd 9577 fc3d 1e0b a13a 8fdd ef3d
00000150: ba71 bc3d 755c 373d 806b bb3d ff5b a33c
00000160: 3d2b aa3d d1c2 0fbc 105c 2fbe aac9 0fbd
00000170: ba7f 893d cd40 273d 00f1 b2bd da60 4c3e
00000180: 3aad 433d c0ec 3f3e 1796 073e ec29 c8bd
00000190: eb1c 3f3d 5502 36bd 946d 983d 17e4 e93c
000001a0: 8c68 9c3c 8103 b13d 4bcc 7f3d fdb5 f33d
000001b0: ad65 723b ea68 1dbd 63c2 00be 71e3 49bc
000001c0: fd10 10bd 0ab9 283e 44c6 3a3d 1527 27bd
000001d0: c3a9 6ebc 5ae3 71bd 8739 82bb 2ed6 64bd
000001e0: 63af cb3c 824d 253d eede 923b 2ca1 5c3e
000001f0: 7b8a ab3d 57fc 093e afda 133d aa71 3dbd
00000200: 1c4f 7cbd e9b3 e0bd 6157 183e be40 8b3d
00000210: a277 233e ce39 1b3e 9414 df3d ca75 213d
00000220: 78e5 293d 445a bebd 9f79 553e fe05 783e
00000230: e82a 2b3d a8e6 1f3e df43 1c3e 34bc 633d
00000240: f5dc 82bd 9290 233e b1e3 cbbd 13d3 013e
00000250: b421 df3d 8ba6 2a3e 761f 223d 6f2b b33d
00000260: cf6f 78ba c1c4 a03d 9d84 d43d 4d86 2a3d
00000270: 4e6a bebd fffc a2bd 7a1c dc3a bef3 06be
00000280: 725d a7be ee88 2abe 11c7 9abd 80ba 573c
00000290: 31a5 143c 5cdd c63c f4c4 65bd a571 0ebc
000002a0: 4dd8 2c3e d796 c7bd da82 27ba f153 9fbd
000002b0: 9c6e e03c e58b 8b3d 13b0 1e3d cc28 91bd
000002c0: ab8f 3e3d 9dff b1bd 82c5 f7bc 077f 623e
000002d0: ae8f 4bbc 535d 99bc 72d4 febd a438 7bbb
000002e0: b57b 9cbd 85fc fbbd 58b0 21be a4ce bc3d
000002f0: dc3b 1abe fc76 abbd 1067 1d3e ee90 d8bb
00000300: 4af5 f2bd eeb3 013e eadf af3c 260a b1bd
00000310: 9169 d0bd b099 993d 2f55 ff3d e3b4 b13d
00000320: 9e93 efbd 98ff 9dbd 206e 43be 1cfb b2bd
00000330: 094a 033e 6c82 a0bd b5ba 25be 1c9d 2cbd
00000340: 1a4c b23d e88d 81be 9902 fa3d 37bf 1f3d
00000350: fb13 88bd 0d3a 41be b137 473d 65e1 c2bc
00000360: efb5 f73d d560 a5bd 974c 17be a31e e23d
00000370: 9e02 81bd 4bec 8f3d f58c bdbd fff9 27bd
00000380: d61e cdbd

bias f4 [5]
-0.050474074 0.09050264 -0.08721479 -0.01490403 -0.08479601
00000000: e7bd 4ebd 7359 b93d ab9d b2bd 0830 74bc
00000010: 88a9 adbd

weight f4 [5]
1.0261201 1.0197678 0.9844471 0.92139506 1.2140913
00000000: e757 833f c087 823f ba04 7c3f 8ce0 6b3f
00000010: 5867 9b3f

bias f4 [5]
0.08152538 0.10186333 -0.08938003 -0.053592686 0.061559122
00000000: c7f6 a63d b99d d03d e10c b7bd 0184 5bbd
00000010: 6b25 7c3d

running_mean f4 [5]
0.41941515 0.3183889 0.4010637 0.6276134 -0.5262366
00000000: 95bd d63e df03 a33e 3958 cd3e 46ab 203f
00000010: 71b7 06bf

running_var f4 [5]
0.419833 0.1813652 0.5997575 0.5390844 0.22809473
00000000: 5af4 d63e cdb7 393e b589 193f 6f01 0a3f
00000010: aa91 693e

weight f4 [5, 5, 3, 3]
0.001906219 0.09368111 -0.15816139 0.017119873 0.14863262 0.18822409 0.07811381 -0.041031778
0.11592657 -0.00883622 -0.015803227 -0.047177203 0.050451737 -0.0797045 -0.1314713 -0.018256277
-0.19429256 -0.06801772 -0.02345796 0.08500442 0.27535054 0.10151035 0.108893074 -0.24013576
0.10738159 0.24952097 -0.03504719 0.07624835 -0.01892653 -0.0069781025 0.0019052873 -0.026366845
-0.04645296 -0.14127646 0.085140094 0.016997347 -0.092306286 -0.025011761 0.090226695 -0.01252161
0.0529494 0.0032202487 -0.036392633 -0.09176607 -0.14300753 -0.14839584 -0.16196251 -0.006967069
-0.08517944 -0.010208087 0.06705858 0.0314668 0.07484728 -0.16355342 -0.046767734 0.15231286
-0.105831146 -0.14240453 -0.08959949 0.043530535 -0.05737459 0.0120238755 0.026606975 -0.011450245
-0.032015078 0.07043059 0.034339953 -0.10981961 -0.14340262 -0.11148324 -0.105158776 0.034928065
-0.05126537 -0.034139346 0.025417423 0.21909119 0.07968693 -0.049322553 -0.16368574 0.006316134
-0.09156169 -0.1517578 0.15190043 -0.062827036 -0.12103863 0.11467416 0.12729414 -0.013651934
0.034935724 -0.16188866 -0.06786151 0.10391471 -0.1430656 0.05660241 0.10884807 -0.06454358
0.006689795 0.07747167 -0.23723729 0.15935026 0.21997976 -0.0072148233 -0.07979914 0.017947277
0.009025107 -0.13574506 0.045084655 -0.1395108 -0.14487475 -0.03743955 0.022456355 0.091371864
0.09288769 0.1312652 -0.012881195 -0.008429025 0.108759016 0.072435595 -0.10498108 -0.015083363
-0.04914902 0.10937713 0.06253085 -0.18282971 -0.025722181 -0.0007198468 -0.22535294 0.06795852
0.082967564 -0.034768514 0.1240202 0.009069287 -0.0952749 -0.123081915 0.056283195 0.16579475
0.18575892 0.07943744 -0.05537028 -0.044628803 -0.0011408913 -0.006454115 0.02715913 0.14248963
0.0468278 -0.12848257 0.022072028 -0.064742304 0.020939937 -0.038349785 -0.024624407 -0.13482676
0.16830817 0.1092613 0.035206184 0.12581752 -0.051250808 -0.1180971 -0.032984626 -0.11916371
0.0025586043 0.11542125 -0.07844531 0.07853776 0.05556263 -0.10024849 -0.047491696 0.017405221
-0.12854852 0.0860536 0.1591641 -0.110664934 -0.08690438 -0.10792141 0.07514119 0.038349774
-0.14168711 0.124265164 0.069082476 -0.03887214 -0.08892617 -0.0033555292 -0.04770476 -0.05659434
0.089242496 -0.17164601 -0.012005599 -0.025096722 -0.07914625 0.10343251 0.18093066 0.14980255
0.02433652 0.008432102 -0.010756694 0.048501372 0.06607379 -0.009788748 0.043621473 0.0562523
0.2588054 -0.04938157 0.088366896 -0.012249357 0.17980209 0.14087401 0.1270563 -0.12934731
-0.05018222 -0.060172323 0.078579456 0.029080026 -0.08236551 -0.015573975 -0.10444879 -0.0794419
-0.13795467 -0.11451505 -0.13640998 -0.17619087 0.07347431 -0.02638702 -0.16074556 0.009736551
0.004718112
00000000: 19da f93a e2db bf3d 0ff5 21be fa3e 8c3c
00000010: 2633 183e d1bd 403e 22fa 9f3d f010 28bd
00000020: e96a ed3d cbc5 10bc c575 81bc e23c 41bd
00000030: 7ba6 4e3d 1d3c a3bd 6aa0 06be 308e 95bc
00000040: a1f4 46be e04c 8bbd e82a c0bc cc16 ae3d
00000050: bffa 8c3e a9e4 cf3d 5503 df3d 26e6 75be
00000060: e1ea db3d 6d82 7f3e a48d 0fbd 1828 9c3d
00000070: cf0b 9bbc 91a8 e4bb d5ba f93a 48ff d7bc
00000080: 7645 3ebd c7aa 10be ee5d ae3d 053e 8b3c
00000090: 140b bdbd 77e5 ccbc c6c8 b83d 7027 4dbc
000000a0: 78e1 583d cf0a 533b 7110 15bd d9ef bbbd
000000b0: 9170 12be 14f5 17be 80d9 25be 034c e4bb
000000c0: 8f72 aebd d23f 27bc 0256 893d 55e3 003d
000000d0: 8849 993d 8c7a 27be 868f 3fbd e7f7 1b3e
000000e0: 00be d8bd 7ed2 11be f07f b7bd 134d 323d
000000f0: 9e01 6bbd caff 443c dff6 d93c cf99 3bbc
00000100: 3e22 03bd ea3d 903d 0da8 0c3d 1be9 e0bd
00000110: 23d8 12be 5351 e4bd 7c5d d7bd bb10 0f3d
00000120: a3fb 51bd b3d5 0bbd 3338 d03c 7159 603e
00000130: e732 a33d 7206 4abd 3c9d 27be 92f7 ce3b
00000140: b284 bbbd 6666 1bbe c98b 1b3e 76ab 80bd
00000150: 1ae3 f7bd 49da ea3d 6559 023e 5dac 5fbc
00000160: c318 0f3d 24c6 25be fafa 8abd 3cd1 d43d
00000170: ca7f 12be eed7 673d bdeb de3d 6d2f 84bd
00000180: 1136 db3b 78a9 9e3d 55ee 72be b72c 233e
00000190: 6042 613e 536a ecbb bb6d a3bd 2b06 933c
000001a0: 0bde 133c c100 0bbe b0aa 383d ebdb 0ebe
000001b0: 0c5a 14be 375a 19bd 64f6 b73c 2c21 bb3d
000001c0: e73b be3d 626a 063e a60b 53bc e519 0abc
000001d0: 0cbd de3d 1d59 943d 5200 d7bd 3620 77bc
000001e0: 7c50 49bd 1e01 e03d 2d10 803d b637 3bbe
000001f0: 53b7 d2bc 1ab4 3cba ecc2 66be d62d 8b3d
00000200: e6ea a93d 6e69 0ebd 4dfe fd3d 5997 143c
00000210: 7d1f c3bd 5f12 fcbd 3589 663d 19c6 293e
00000220: 9637 3e3e 19b0 a23d f2cb 62bd b1cc 36bd
00000230: f689 95ba 0a7d d3bb d37c de3c cde8 113e
00000240: 82ce 3f3d ef90 03be 66d0 b43c 9d97 84bd
00000250: 3b8a ab3c aa14 1dbd 20b9 c9bc 0710 0abe
00000260: fa58 2c3e 63c4 df3d 5c34 103d 4fd6 003e
00000270: 5eec 51bd e4dc f1bd e31a 07bd 1a0c f4bd
00000280: 42ae 273b fa61 ec3d efa7 a0bd 68d8 a03d
00000290: a495 633d 154f cdbd a786 42bd 6595 8e3c
000002a0: 39a2 03be df3c b03d eafb 223e 4ca4 e2bd
000002b0: ecfa b1bd e605 ddbd a0e3 993d a714 1d3d
000002c0: 6d16 11be bc7e fe3d 1d7b 8d3d 6538 1fbd
000002d0: ec1e b6bd 70e8 5bbb 1166 43bd 77cf 67bd
000002e0: c5c4 b63d f9c3 2fbe 22b3 44bc a497 cdbc
000002f0: 6e17 a2bd 6cd4 d33d e345 393e d765 193e
00000300: 625d c73c cd26 0a3c d83c 30bc 60a9 463d
00000310: b251 873d fc60 20bc 6eac 323d d068 663d
00000320: 2482 843e 5444 4abd b4f9 b43d 87b1 48bc
00000330: 0a1e 383e 4741 103e 0c1b 023e 9f73 04be
00000340: df8b 4dbd 4177 76bd 44ee a03d 3c39 ee3c
00000350: 40af a8bd fc29 7fbc 3fe9 d5bd 6fb2 a2bd
00000360: fd43 0dbe de86 eabd 0faf 0bbe 616b 34be
00000370: b379 963d 9729 d8bc 7c9a 24be 0e86 1f3c
00000380: 649a 9a3b

bias f4 [5]
0.02089847 -0.16585875 -0.057573605 -0.04834336 0.09198036
00000000: 4533 ab3c e0d6 29be 4dd2 6bbd b003 46bd
00000010: 3360 bc3d

weight f4 [5]
1.0419705 1.0844849 1.0316443 0.9531187 1.111454
00000000: 4a5f 853f 67d0 8a3f ec0c 843f 96ff 733f
00000010: 2044 8e3f

bias f4 [5]
0.0065619126 0.17742445 -0.09840956 -0.16922888 0.038357753
00000000: 5005 d73b c1ae 353e f48a c9bd 564a 2dbe
00000010: 051d 1d3d

running_mean f4 [5]
0.3171899 -0.49452564 0.023863148 0.17497814 0.13505182
00000000: b766 a23e 7732 fdbe a67c c33c 782d 333e
00000010: 064b 0a3e

running_var f4 [5]
0.20922111 0.16616262 0.2279978 0.1884029 0.602015
00000000: 0f3e 563e 8926 2a3e 4178 693e b1ec 403e
00000010: a81d 1a3f

weight f4 [15, 5, 1, 1]
0.28372842 0.19354302 -0.13726889 -0.34337956 -0.40679896 -0.052933805 0.25812107 -0.26288557
0.38288918 -0.3400605 -0.3980747 0.095278665 -0.099523276 -0.0092047155 -0.381444 0.37334564
-0.37899485 -0.50661576 -0.2680672 -0.18735741 -0.48137814 0.28313366 -0.20555621 -0.22971374
-0.40196523 -0.23359337 -0.46062386 -0.27613604 0.28967428 0.054213423 0.37783062 -0.26037094
0.27321544 0.26264593 0.50071937 0.038529232 -0.03578418 0.40263474 0.078112684 0.14289454
-0.08863134 0.050707914 -0.045286953 0.23445623 -0.24304876 -0.21246509 -0.14397869 -0.30577067
-0.2175882 -0.031186631 -0.09717346 -0.36927015 -0.1178965 -0.46183327 -0.25435147 -0.3377641
-0.15249874 0.17868625 0.04832902 -0.52240354 -0.36884335 -0.2721674 -0.002679674 -0.41700256
0.20717701 0.05769337 -0.16522694 0.26039073 0.18515901 0.33785704 -0.4386937 0.2105227
-0.42945093 0.33408207 0.24891749
00000000: da44 913e 2430 463e 3790 0cbe 72cf afbe
00000010: f447 d0be 1ed1 58bd 7228 843e f098 86be
00000020: 0d0a c43e 691c aebe 72d0 cbbe 7621 c33d
00000030: dcd2 cbbd 60cf 16bc a14c c3be 2927 bf3e
00000040: 9d0b c2be 92b1 01bf 1b40 89be 9fda 3fbe
00000050: 3277 f6be e5f6 903e 547d 52be 143a 6bbe
00000060: 63ce cdbe 1a33 6fbe e4d6 ebbe b461 8dbe
00000070: 3050 943e e50e 5e3d 0473 c13e 574f 85be
00000080: e5e2 8b3e 8779 863e 252f 003f d4d0 1d3d
00000090: 6f92 12bd 2426 ce3e 8bf9 9f3d f252 123e
000000a0: 5984 b5bd 1ab3 4f3d d07e 39bd 4b15 703e
000000b0: c6e1 78be 7390 59be 266f 13be f98d 9cbe
000000c0: 71cf 5ebe 1b7b ffbc e102 c7bd fa10 bdbe
000000d0: b873 f1bd 6975 ecbe 5b3a 82be 6bef acbe
000000e0: a128 1cbe 87f9 363e a7f4 453d 3dbc 05bf
000000f0: 09d9 bcbe 8759 8bbe 789d 2fbb 5c81 d5be
00000100: 3626 543e e24f 6c3d 4031 29be ef51 853e
00000110: 539a 3d3e 99fb ac3e 769c e0be 4393 573e
00000120: fee0 dbbe ce0c ab3e 3ae4 7e3e

weight f4 [15]
1.0778294 0.9051423 1.0952443 1.0091707 1.0035207 1.0997564 1.0083327 1.0066769
0.9273343 0.9925255 1.067858 0.95729417 1.0826925 1.0332913 0.9222701
00000000: 50f6 893f 68b7 673f f730 8c3f 812c 813f
00000010: 5e73 803f d1c4 8c3f 0c11 813f cada 803f
00000020: c865 6d3f 2716 7e3f 92af 883f 3b11 753f
00000030: ab95 8a3f e442 843f e519 6c3f

bias f4 [15]
0.10660088 -0.06035588 0.09764667 0.014916783 0.07934782 0.049046047 -0.07138775 0.12619624
-0.063574605 0.067152426 0.12545888 0.0028978502 0.015196365 -0.007655396 0.108557984
00000000: 9051 da3d ba37 77bd fafa c73d 8665 743c
00000010: 1c81 a23d 82e4 483d be33 92bd 9639 013e
00000020: 6733 82bd 3687 893d 4b78 003e dce9 3d3b
00000030: 2dfa 783c 1eda fabb a653 de3d

running_mean f4 [15]
-0.2509092 0.0082667535 -0.4992725 -0.69153917 -0.6315186 -0.46286494 0.7161783 0.4102546
-0.061572216 -0.60753095 -0.8866793 -0.5224926 -0.5676407 0.4230795 -0.022615507
00000000: 2c77 80be 4771 073c a5a0 ffbe b608 31bf
00000010: 34ab 21bf a2fc ecbe 7657 373f e40c d23e
00000020: 2633 7cbd 2687 1bbf 6afd 62bf 13c2 05bf
00000030: e750 11bf e09d d83e 2844 b9bc

running_var f4 [15]
0.3720736 0.40814477 0.4263658 0.5353232 0.8214809 0.42666906 0.94548523 0.17784609
0.11381948 0.4234027 0.9666663 0.4649221 0.79221636 0.33607864 0.25454825
00000000: 6e80 be3e 5af8 d03e 9e4c da3e f10a 093f
00000010: 924c 523f 5e74 da3e 520b 723f 491d 363e
00000020: 301a e93d 3dc8 d83e 7177 773f 450a ee3e
00000030: b1ce 4a3f 8012 ac3e 2654 823e
